{"format": "graph-model", "generatedBy": "2.15.1", "convertedBy": "TensorFlow.js Converter v4.22.0", "signature": {"inputs": {"embedding_2_input": {"name": "embedding_2_input:0", "dtype": "DT_FLOAT", "tensorShape": {"dim": [{"size": "-1"}, {"size": "11"}]}}}, "outputs": {"dense_2": {"name": "Identity:0", "dtype": "DT_FLOAT", "tensorShape": {"dim": [{"size": "-1"}, {"size": "1691"}]}}}}, "modelTopology": {"node": [{"name": "StatefulPartitionedCall/sequential_2/bidirectional_2/forward_lstm_2/PartitionedCall/TensorArrayV2_1/element_shape", "op": "Const", "attr": {"value": {"tensor": {"dtype": "DT_INT32", "tensorShape": {"dim": [{"size": "2"}]}}}, "dtype": {"type": "DT_INT32"}}}, {"name": "StatefulPartitionedCall/sequential_2/bidirectional_2/forward_lstm_2/PartitionedCall/TensorArrayV2_1/num_elements", "op": "Const", "attr": {"value": {"tensor": {"dtype": "DT_INT32", "tensorShape": {}}}, "dtype": {"type": "DT_INT32"}}}, {"name": "StatefulPartitionedCall/sequential_2/bidirectional_2/forward_lstm_2/zeros_1/packed/1", "op": "Const", "attr": {"value": {"tensor": {"dtype": "DT_INT32", "tensorShape": {}}}, "dtype": {"type": "DT_INT32"}}}, {"name": "StatefulPartitionedCall/sequential_2/bidirectional_2/forward_lstm_2/zeros_1/Const", "op": "Const", "attr": {"value": {"tensor": {"dtype": "DT_FLOAT", "tensorShape": {}}}, "dtype": {"type": "DT_FLOAT"}}}, {"name": "StatefulPartitionedCall/sequential_2/bidirectional_2/forward_lstm_2/PartitionedCall/TensorArrayUnstack/TensorListFromTensor/element_shape", "op": "Const", "attr": {"value": {"tensor": {"dtype": "DT_INT32", "tensorShape": {"dim": [{"size": "2"}]}}}, "dtype": {"type": "DT_INT32"}}}, {"name": "StatefulPartitionedCall/sequential_2/bidirectional_2/forward_lstm_2/Read/ReadVariableOp", "op": "Const", "attr": {"value": {"tensor": {"dtype": "DT_FLOAT", "tensorShape": {"dim": [{"size": "100"}, {"size": "600"}]}}}, "dtype": {"type": "DT_FLOAT"}}}, {"name": "StatefulPartitionedCall/sequential_2/bidirectional_2/forward_lstm_2/strided_slice/stack", "op": "Const", "attr": {"value": {"tensor": {"dtype": "DT_INT32", "tensorShape": {"dim": [{"size": "1"}]}}}, "dtype": {"type": "DT_INT32"}}}, {"name": "StatefulPartitionedCall/sequential_2/bidirectional_2/forward_lstm_2/strided_slice/stack_1", "op": "Const", "attr": {"value": {"tensor": {"dtype": "DT_INT32", "tensorShape": {"dim": [{"size": "1"}]}}}, "dtype": {"type": "DT_INT32"}}}, {"name": "StatefulPartitionedCall/sequential_2/bidirectional_2/forward_lstm_2/strided_slice/stack_2", "op": "Const", "attr": {"value": {"tensor": {"dtype": "DT_INT32", "tensorShape": {"dim": [{"size": "1"}]}}}, "dtype": {"type": "DT_INT32"}}}, {"name": "StatefulPartitionedCall/sequential_2/bidirectional_2/forward_lstm_2/zeros/packed/1", "op": "Const", "attr": {"value": {"tensor": {"dtype": "DT_INT32", "tensorShape": {}}}, "dtype": {"type": "DT_INT32"}}}, {"name": "StatefulPartitionedCall/sequential_2/bidirectional_2/forward_lstm_2/zeros/Const", "op": "Const", "attr": {"value": {"tensor": {"dtype": "DT_FLOAT", "tensorShape": {}}}, "dtype": {"type": "DT_FLOAT"}}}, {"name": "StatefulPartitionedCall/sequential_2/bidirectional_2/forward_lstm_2/Read_1/ReadVariableOp", "op": "Const", "attr": {"value": {"tensor": {"dtype": "DT_FLOAT", "tensorShape": {"dim": [{"size": "150"}, {"size": "600"}]}}}, "dtype": {"type": "DT_FLOAT"}}}, {"name": "StatefulPartitionedCall/sequential_2/bidirectional_2/forward_lstm_2/Read_2/ReadVariableOp", "op": "Const", "attr": {"value": {"tensor": {"dtype": "DT_FLOAT", "tensorShape": {"dim": [{"size": "600"}]}}}, "dtype": {"type": "DT_FLOAT"}}}, {"name": "StatefulPartitionedCall/sequential_2/bidirectional_2/forward_lstm_2/PartitionedCall/time", "op": "Const", "attr": {"value": {"tensor": {"dtype": "DT_INT32", "tensorShape": {}}}, "dtype": {"type": "DT_INT32"}}}, {"name": "StatefulPartitionedCall/sequential_2/bidirectional_2/forward_lstm_2/PartitionedCall/transpose/perm", "op": "Const", "attr": {"value": {"tensor": {"dtype": "DT_INT32", "tensorShape": {"dim": [{"size": "3"}]}}}, "dtype": {"type": "DT_INT32"}}}, {"name": "StatefulPartitionedCall/sequential_2/bidirectional_2/forward_lstm_2/PartitionedCall/strided_slice/stack", "op": "Const", "attr": {"value": {"tensor": {"dtype": "DT_INT32", "tensorShape": {"dim": [{"size": "1"}]}}}, "dtype": {"type": "DT_INT32"}}}, {"name": "StatefulPartitionedCall/sequential_2/bidirectional_2/forward_lstm_2/PartitionedCall/strided_slice/stack_1", "op": "Const", "attr": {"value": {"tensor": {"dtype": "DT_INT32", "tensorShape": {"dim": [{"size": "1"}]}}}, "dtype": {"type": "DT_INT32"}}}, {"name": "StatefulPartitionedCall/sequential_2/bidirectional_2/forward_lstm_2/PartitionedCall/strided_slice/stack_2", "op": "Const", "attr": {"value": {"tensor": {"dtype": "DT_INT32", "tensorShape": {"dim": [{"size": "1"}]}}}, "dtype": {"type": "DT_INT32"}}}, {"name": "StatefulPartitionedCall/sequential_2/bidirectional_2/forward_lstm_2/PartitionedCall/while/loop_counter", "op": "Const", "attr": {"value": {"tensor": {"dtype": "DT_INT32", "tensorShape": {}}}, "dtype": {"type": "DT_INT32"}}}, {"name": "StatefulPartitionedCall/sequential_2/bidirectional_2/forward_lstm_2/PartitionedCall/TensorArrayV2Stack/TensorListStack/element_shape", "op": "Const", "attr": {"value": {"tensor": {"dtype": "DT_INT32", "tensorShape": {"dim": [{"size": "2"}]}}}, "dtype": {"type": "DT_INT32"}}}, {"name": "StatefulPartitionedCall/sequential_2/bidirectional_2/forward_lstm_2/PartitionedCall/strided_slice_2/stack", "op": "Const", "attr": {"value": {"tensor": {"dtype": "DT_INT32", "tensorShape": {"dim": [{"size": "1"}]}}}, "dtype": {"type": "DT_INT32"}}}, {"name": "StatefulPartitionedCall/sequential_2/bidirectional_2/forward_lstm_2/PartitionedCall/strided_slice_2/stack_1", "op": "Const", "attr": {"value": {"tensor": {"dtype": "DT_INT32", "tensorShape": {"dim": [{"size": "1"}]}}}, "dtype": {"type": "DT_INT32"}}}, {"name": "StatefulPartitionedCall/sequential_2/bidirectional_2/forward_lstm_2/PartitionedCall/strided_slice_2/stack_2", "op": "Const", "attr": {"value": {"tensor": {"dtype": "DT_INT32", "tensorShape": {"dim": [{"size": "1"}]}}}, "dtype": {"type": "DT_INT32"}}}, {"name": "StatefulPartitionedCall/sequential_2/bidirectional_2/backward_lstm_2/PartitionedCall/TensorArrayV2_1/element_shape", "op": "Const", "attr": {"value": {"tensor": {"dtype": "DT_INT32", "tensorShape": {"dim": [{"size": "2"}]}}}, "dtype": {"type": "DT_INT32"}}}, {"name": "StatefulPartitionedCall/sequential_2/bidirectional_2/backward_lstm_2/PartitionedCall/TensorArrayV2_1/num_elements", "op": "Const", "attr": {"value": {"tensor": {"dtype": "DT_INT32", "tensorShape": {}}}, "dtype": {"type": "DT_INT32"}}}, {"name": "StatefulPartitionedCall/sequential_2/bidirectional_2/backward_lstm_2/zeros_1/packed/1", "op": "Const", "attr": {"value": {"tensor": {"dtype": "DT_INT32", "tensorShape": {}}}, "dtype": {"type": "DT_INT32"}}}, {"name": "StatefulPartitionedCall/sequential_2/bidirectional_2/backward_lstm_2/zeros_1/Const", "op": "Const", "attr": {"value": {"tensor": {"dtype": "DT_FLOAT", "tensorShape": {}}}, "dtype": {"type": "DT_FLOAT"}}}, {"name": "StatefulPartitionedCall/sequential_2/bidirectional_2/backward_lstm_2/PartitionedCall/ReverseV2/axis", "op": "Const", "attr": {"value": {"tensor": {"dtype": "DT_INT32", "tensorShape": {"dim": [{"size": "1"}]}}}, "dtype": {"type": "DT_INT32"}}}, {"name": "StatefulPartitionedCall/sequential_2/bidirectional_2/backward_lstm_2/PartitionedCall/TensorArrayUnstack/TensorListFromTensor/element_shape", "op": "Const", "attr": {"value": {"tensor": {"dtype": "DT_INT32", "tensorShape": {"dim": [{"size": "2"}]}}}, "dtype": {"type": "DT_INT32"}}}, {"name": "StatefulPartitionedCall/sequential_2/bidirectional_2/backward_lstm_2/Read/ReadVariableOp", "op": "Const", "attr": {"value": {"tensor": {"dtype": "DT_FLOAT", "tensorShape": {"dim": [{"size": "100"}, {"size": "600"}]}}}, "dtype": {"type": "DT_FLOAT"}}}, {"name": "StatefulPartitionedCall/sequential_2/bidirectional_2/backward_lstm_2/strided_slice/stack", "op": "Const", "attr": {"value": {"tensor": {"dtype": "DT_INT32", "tensorShape": {"dim": [{"size": "1"}]}}}, "dtype": {"type": "DT_INT32"}}}, {"name": "StatefulPartitionedCall/sequential_2/bidirectional_2/backward_lstm_2/strided_slice/stack_1", "op": "Const", "attr": {"value": {"tensor": {"dtype": "DT_INT32", "tensorShape": {"dim": [{"size": "1"}]}}}, "dtype": {"type": "DT_INT32"}}}, {"name": "StatefulPartitionedCall/sequential_2/bidirectional_2/backward_lstm_2/strided_slice/stack_2", "op": "Const", "attr": {"value": {"tensor": {"dtype": "DT_INT32", "tensorShape": {"dim": [{"size": "1"}]}}}, "dtype": {"type": "DT_INT32"}}}, {"name": "StatefulPartitionedCall/sequential_2/bidirectional_2/backward_lstm_2/zeros/packed/1", "op": "Const", "attr": {"value": {"tensor": {"dtype": "DT_INT32", "tensorShape": {}}}, "dtype": {"type": "DT_INT32"}}}, {"name": "StatefulPartitionedCall/sequential_2/bidirectional_2/backward_lstm_2/zeros/Const", "op": "Const", "attr": {"value": {"tensor": {"dtype": "DT_FLOAT", "tensorShape": {}}}, "dtype": {"type": "DT_FLOAT"}}}, {"name": "StatefulPartitionedCall/sequential_2/bidirectional_2/backward_lstm_2/Read_1/ReadVariableOp", "op": "Const", "attr": {"value": {"tensor": {"dtype": "DT_FLOAT", "tensorShape": {"dim": [{"size": "150"}, {"size": "600"}]}}}, "dtype": {"type": "DT_FLOAT"}}}, {"name": "StatefulPartitionedCall/sequential_2/bidirectional_2/backward_lstm_2/Read_2/ReadVariableOp", "op": "Const", "attr": {"value": {"tensor": {"dtype": "DT_FLOAT", "tensorShape": {"dim": [{"size": "600"}]}}}, "dtype": {"type": "DT_FLOAT"}}}, {"name": "StatefulPartitionedCall/sequential_2/bidirectional_2/backward_lstm_2/PartitionedCall/time", "op": "Const", "attr": {"value": {"tensor": {"dtype": "DT_INT32", "tensorShape": {}}}, "dtype": {"type": "DT_INT32"}}}, {"name": "StatefulPartitionedCall/sequential_2/bidirectional_2/backward_lstm_2/PartitionedCall/transpose/perm", "op": "Const", "attr": {"value": {"tensor": {"dtype": "DT_INT32", "tensorShape": {"dim": [{"size": "3"}]}}}, "dtype": {"type": "DT_INT32"}}}, {"name": "StatefulPartitionedCall/sequential_2/bidirectional_2/backward_lstm_2/PartitionedCall/strided_slice/stack", "op": "Const", "attr": {"value": {"tensor": {"dtype": "DT_INT32", "tensorShape": {"dim": [{"size": "1"}]}}}, "dtype": {"type": "DT_INT32"}}}, {"name": "StatefulPartitionedCall/sequential_2/bidirectional_2/backward_lstm_2/PartitionedCall/strided_slice/stack_1", "op": "Const", "attr": {"value": {"tensor": {"dtype": "DT_INT32", "tensorShape": {"dim": [{"size": "1"}]}}}, "dtype": {"type": "DT_INT32"}}}, {"name": "StatefulPartitionedCall/sequential_2/bidirectional_2/backward_lstm_2/PartitionedCall/strided_slice/stack_2", "op": "Const", "attr": {"value": {"tensor": {"dtype": "DT_INT32", "tensorShape": {"dim": [{"size": "1"}]}}}, "dtype": {"type": "DT_INT32"}}}, {"name": "StatefulPartitionedCall/sequential_2/bidirectional_2/backward_lstm_2/PartitionedCall/while/loop_counter", "op": "Const", "attr": {"value": {"tensor": {"dtype": "DT_INT32", "tensorShape": {}}}, "dtype": {"type": "DT_INT32"}}}, {"name": "StatefulPartitionedCall/sequential_2/bidirectional_2/backward_lstm_2/PartitionedCall/TensorArrayV2Stack/TensorListStack/element_shape", "op": "Const", "attr": {"value": {"tensor": {"dtype": "DT_INT32", "tensorShape": {"dim": [{"size": "2"}]}}}, "dtype": {"type": "DT_INT32"}}}, {"name": "StatefulPartitionedCall/sequential_2/bidirectional_2/backward_lstm_2/PartitionedCall/strided_slice_2/stack", "op": "Const", "attr": {"value": {"tensor": {"dtype": "DT_INT32", "tensorShape": {"dim": [{"size": "1"}]}}}, "dtype": {"type": "DT_INT32"}}}, {"name": "StatefulPartitionedCall/sequential_2/bidirectional_2/backward_lstm_2/PartitionedCall/strided_slice_2/stack_1", "op": "Const", "attr": {"value": {"tensor": {"dtype": "DT_INT32", "tensorShape": {"dim": [{"size": "1"}]}}}, "dtype": {"type": "DT_INT32"}}}, {"name": "StatefulPartitionedCall/sequential_2/bidirectional_2/backward_lstm_2/PartitionedCall/strided_slice_2/stack_2", "op": "Const", "attr": {"value": {"tensor": {"dtype": "DT_INT32", "tensorShape": {"dim": [{"size": "1"}]}}}, "dtype": {"type": "DT_INT32"}}}, {"name": "StatefulPartitionedCall/sequential_2/bidirectional_2/concat/axis", "op": "Const", "attr": {"value": {"tensor": {"dtype": "DT_INT32", "tensorShape": {}}}, "dtype": {"type": "DT_INT32"}}}, {"name": "StatefulPartitionedCall/sequential_2/dense_2/MatMul/ReadVariableOp", "op": "Const", "attr": {"value": {"tensor": {"dtype": "DT_FLOAT", "tensorShape": {"dim": [{"size": "300"}, {"size": "1691"}]}}}, "dtype": {"type": "DT_FLOAT"}}}, {"name": "StatefulPartitionedCall/sequential_2/dense_2/BiasAdd/ReadVariableOp", "op": "Const", "attr": {"value": {"tensor": {"dtype": "DT_FLOAT", "tensorShape": {"dim": [{"size": "1691"}]}}}, "dtype": {"type": "DT_FLOAT"}}}, {"name": "unknown", "op": "Const", "attr": {"value": {"tensor": {"dtype": "DT_FLOAT", "tensorShape": {"dim": [{"size": "1691"}, {"size": "100"}]}}}, "dtype": {"type": "DT_FLOAT"}}}, {"name": "StatefulPartitionedCall/sequential_2/embedding_2/embedding_lookup/axis", "op": "Const", "attr": {"value": {"tensor": {"dtype": "DT_INT32", "tensorShape": {}}}, "dtype": {"type": "DT_INT32"}}}, {"name": "embedding_2_input", "op": "Placeholder", "attr": {"shape": {"shape": {"dim": [{"size": "-1"}, {"size": "11"}]}}, "dtype": {"type": "DT_FLOAT"}}}, {"name": "StatefulPartitionedCall/sequential_2/bidirectional_2/forward_lstm_2/PartitionedCall/TensorArrayV2_1", "op": "TensorListReserve", "input": ["StatefulPartitionedCall/sequential_2/bidirectional_2/forward_lstm_2/PartitionedCall/TensorArrayV2_1/element_shape", "StatefulPartitionedCall/sequential_2/bidirectional_2/forward_lstm_2/PartitionedCall/TensorArrayV2_1/num_elements"], "attr": {"shape_type": {"type": "DT_INT32"}, "element_dtype": {"type": "DT_FLOAT"}}, "experimentalType": {"typeId": "TFT_PRODUCT", "args": [{"typeId": "TFT_ARRAY", "args": [{"typeId": "TFT_TENSOR", "args": [{"typeId": "TFT_FLOAT"}]}]}]}}, {"name": "StatefulPartitionedCall/sequential_2/bidirectional_2/forward_lstm_2/PartitionedCall/while/enter/_44", "op": "Enter", "input": ["StatefulPartitionedCall/sequential_2/bidirectional_2/forward_lstm_2/Read/ReadVariableOp"], "attr": {"is_constant": {"b": false}, "frame_name": {"s": "U3RhdGVmdWxQYXJ0aXRpb25lZENhbGwvc2VxdWVudGlhbF8yL2JpZGlyZWN0aW9uYWxfMi9mb3J3YXJkX2xzdG1fMi9QYXJ0aXRpb25lZENhbGwvd2hpbGU="}, "T": {"type": "DT_FLOAT"}, "parallel_iterations": {"i": "32"}}}, {"name": "StatefulPartitionedCall/sequential_2/bidirectional_2/forward_lstm_2/PartitionedCall/while/enter/_45", "op": "Enter", "input": ["StatefulPartitionedCall/sequential_2/bidirectional_2/forward_lstm_2/Read_1/ReadVariableOp"], "attr": {"is_constant": {"b": false}, "frame_name": {"s": "U3RhdGVmdWxQYXJ0aXRpb25lZENhbGwvc2VxdWVudGlhbF8yL2JpZGlyZWN0aW9uYWxfMi9mb3J3YXJkX2xzdG1fMi9QYXJ0aXRpb25lZENhbGwvd2hpbGU="}, "T": {"type": "DT_FLOAT"}, "parallel_iterations": {"i": "32"}}}, {"name": "StatefulPartitionedCall/sequential_2/bidirectional_2/forward_lstm_2/PartitionedCall/while/enter/_46", "op": "Enter", "input": ["StatefulPartitionedCall/sequential_2/bidirectional_2/forward_lstm_2/Read_2/ReadVariableOp"], "attr": {"is_constant": {"b": false}, "frame_name": {"s": "U3RhdGVmdWxQYXJ0aXRpb25lZENhbGwvc2VxdWVudGlhbF8yL2JpZGlyZWN0aW9uYWxfMi9mb3J3YXJkX2xzdG1fMi9QYXJ0aXRpb25lZENhbGwvd2hpbGU="}, "T": {"type": "DT_FLOAT"}, "parallel_iterations": {"i": "32"}}}, {"name": "StatefulPartitionedCall/sequential_2/bidirectional_2/forward_lstm_2/PartitionedCall/while/enter/_38", "op": "Enter", "input": ["StatefulPartitionedCall/sequential_2/bidirectional_2/forward_lstm_2/PartitionedCall/time"], "attr": {"is_constant": {"b": false}, "frame_name": {"s": "U3RhdGVmdWxQYXJ0aXRpb25lZENhbGwvc2VxdWVudGlhbF8yL2JpZGlyZWN0aW9uYWxfMi9mb3J3YXJkX2xzdG1fMi9QYXJ0aXRpb25lZENhbGwvd2hpbGU="}, "T": {"type": "DT_INT32"}, "parallel_iterations": {"i": "32"}}}, {"name": "StatefulPartitionedCall/sequential_2/bidirectional_2/forward_lstm_2/PartitionedCall/while/enter/_36", "op": "Enter", "input": ["StatefulPartitionedCall/sequential_2/bidirectional_2/forward_lstm_2/PartitionedCall/while/loop_counter"], "attr": {"is_constant": {"b": false}, "frame_name": {"s": "U3RhdGVmdWxQYXJ0aXRpb25lZENhbGwvc2VxdWVudGlhbF8yL2JpZGlyZWN0aW9uYWxfMi9mb3J3YXJkX2xzdG1fMi9QYXJ0aXRpb25lZENhbGwvd2hpbGU="}, "T": {"type": "DT_INT32"}, "parallel_iterations": {"i": "32"}}}, {"name": "StatefulPartitionedCall/sequential_2/bidirectional_2/backward_lstm_2/PartitionedCall/TensorArrayV2_1", "op": "TensorListReserve", "input": ["StatefulPartitionedCall/sequential_2/bidirectional_2/backward_lstm_2/PartitionedCall/TensorArrayV2_1/element_shape", "StatefulPartitionedCall/sequential_2/bidirectional_2/backward_lstm_2/PartitionedCall/TensorArrayV2_1/num_elements"], "attr": {"shape_type": {"type": "DT_INT32"}, "element_dtype": {"type": "DT_FLOAT"}}, "experimentalType": {"typeId": "TFT_PRODUCT", "args": [{"typeId": "TFT_ARRAY", "args": [{"typeId": "TFT_TENSOR", "args": [{"typeId": "TFT_FLOAT"}]}]}]}}, {"name": "StatefulPartitionedCall/sequential_2/bidirectional_2/backward_lstm_2/PartitionedCall/while/enter/_104", "op": "Enter", "input": ["StatefulPartitionedCall/sequential_2/bidirectional_2/backward_lstm_2/Read/ReadVariableOp"], "attr": {"is_constant": {"b": false}, "frame_name": {"s": "U3RhdGVmdWxQYXJ0aXRpb25lZENhbGwvc2VxdWVudGlhbF8yL2JpZGlyZWN0aW9uYWxfMi9iYWNrd2FyZF9sc3RtXzIvUGFydGl0aW9uZWRDYWxsL3doaWxl"}, "T": {"type": "DT_FLOAT"}, "parallel_iterations": {"i": "32"}}}, {"name": "StatefulPartitionedCall/sequential_2/bidirectional_2/backward_lstm_2/PartitionedCall/while/enter/_105", "op": "Enter", "input": ["StatefulPartitionedCall/sequential_2/bidirectional_2/backward_lstm_2/Read_1/ReadVariableOp"], "attr": {"is_constant": {"b": false}, "frame_name": {"s": "U3RhdGVmdWxQYXJ0aXRpb25lZENhbGwvc2VxdWVudGlhbF8yL2JpZGlyZWN0aW9uYWxfMi9iYWNrd2FyZF9sc3RtXzIvUGFydGl0aW9uZWRDYWxsL3doaWxl"}, "T": {"type": "DT_FLOAT"}, "parallel_iterations": {"i": "32"}}}, {"name": "StatefulPartitionedCall/sequential_2/bidirectional_2/backward_lstm_2/PartitionedCall/while/enter/_106", "op": "Enter", "input": ["StatefulPartitionedCall/sequential_2/bidirectional_2/backward_lstm_2/Read_2/ReadVariableOp"], "attr": {"is_constant": {"b": false}, "frame_name": {"s": "U3RhdGVmdWxQYXJ0aXRpb25lZENhbGwvc2VxdWVudGlhbF8yL2JpZGlyZWN0aW9uYWxfMi9iYWNrd2FyZF9sc3RtXzIvUGFydGl0aW9uZWRDYWxsL3doaWxl"}, "T": {"type": "DT_FLOAT"}, "parallel_iterations": {"i": "32"}}}, {"name": "StatefulPartitionedCall/sequential_2/bidirectional_2/backward_lstm_2/PartitionedCall/while/enter/_98", "op": "Enter", "input": ["StatefulPartitionedCall/sequential_2/bidirectional_2/backward_lstm_2/PartitionedCall/time"], "attr": {"is_constant": {"b": false}, "frame_name": {"s": "U3RhdGVmdWxQYXJ0aXRpb25lZENhbGwvc2VxdWVudGlhbF8yL2JpZGlyZWN0aW9uYWxfMi9iYWNrd2FyZF9sc3RtXzIvUGFydGl0aW9uZWRDYWxsL3doaWxl"}, "T": {"type": "DT_INT32"}, "parallel_iterations": {"i": "32"}}}, {"name": "StatefulPartitionedCall/sequential_2/bidirectional_2/backward_lstm_2/PartitionedCall/while/enter/_96", "op": "Enter", "input": ["StatefulPartitionedCall/sequential_2/bidirectional_2/backward_lstm_2/PartitionedCall/while/loop_counter"], "attr": {"is_constant": {"b": false}, "frame_name": {"s": "U3RhdGVmdWxQYXJ0aXRpb25lZENhbGwvc2VxdWVudGlhbF8yL2JpZGlyZWN0aW9uYWxfMi9iYWNrd2FyZF9sc3RtXzIvUGFydGl0aW9uZWRDYWxsL3doaWxl"}, "T": {"type": "DT_INT32"}, "parallel_iterations": {"i": "32"}}}, {"name": "StatefulPartitionedCall/sequential_2/embedding_2/Cast", "op": "Cast", "input": ["embedding_2_input"], "attr": {"SrcT": {"type": "DT_FLOAT"}, "DstT": {"type": "DT_INT32"}, "Truncate": {"b": false}}}, {"name": "StatefulPartitionedCall/sequential_2/bidirectional_2/forward_lstm_2/PartitionedCall/while/enter/_39", "op": "Enter", "input": ["StatefulPartitionedCall/sequential_2/bidirectional_2/forward_lstm_2/PartitionedCall/TensorArrayV2_1"], "attr": {"is_constant": {"b": false}, "frame_name": {"s": "U3RhdGVmdWxQYXJ0aXRpb25lZENhbGwvc2VxdWVudGlhbF8yL2JpZGlyZWN0aW9uYWxfMi9mb3J3YXJkX2xzdG1fMi9QYXJ0aXRpb25lZENhbGwvd2hpbGU="}, "T": {"type": "DT_VARIANT"}, "parallel_iterations": {"i": "32"}}}, {"name": "StatefulPartitionedCall/sequential_2/bidirectional_2/forward_lstm_2/PartitionedCall/while/merge/_55", "op": "Merge", "input": ["StatefulPartitionedCall/sequential_2/bidirectional_2/forward_lstm_2/PartitionedCall/while/enter/_44", "StatefulPartitionedCall/sequential_2/bidirectional_2/forward_lstm_2/PartitionedCall/while/next_iteration/_91"], "attr": {"N": {"i": "2"}, "T": {"type": "DT_FLOAT"}}}, {"name": "StatefulPartitionedCall/sequential_2/bidirectional_2/forward_lstm_2/PartitionedCall/while/merge/_56", "op": "Merge", "input": ["StatefulPartitionedCall/sequential_2/bidirectional_2/forward_lstm_2/PartitionedCall/while/enter/_45", "StatefulPartitionedCall/sequential_2/bidirectional_2/forward_lstm_2/PartitionedCall/while/next_iteration/_92"], "attr": {"N": {"i": "2"}, "T": {"type": "DT_FLOAT"}}}, {"name": "StatefulPartitionedCall/sequential_2/bidirectional_2/forward_lstm_2/PartitionedCall/while/merge/_57", "op": "Merge", "input": ["StatefulPartitionedCall/sequential_2/bidirectional_2/forward_lstm_2/PartitionedCall/while/enter/_46", "StatefulPartitionedCall/sequential_2/bidirectional_2/forward_lstm_2/PartitionedCall/while/next_iteration/_93"], "attr": {"N": {"i": "2"}, "T": {"type": "DT_FLOAT"}}}, {"name": "StatefulPartitionedCall/sequential_2/bidirectional_2/forward_lstm_2/PartitionedCall/while/merge/_49", "op": "Merge", "input": ["StatefulPartitionedCall/sequential_2/bidirectional_2/forward_lstm_2/PartitionedCall/while/enter/_38", "StatefulPartitionedCall/sequential_2/bidirectional_2/forward_lstm_2/PartitionedCall/while/next_iteration/_85"], "attr": {"N": {"i": "2"}, "T": {"type": "DT_INT32"}}}, {"name": "StatefulPartitionedCall/sequential_2/bidirectional_2/forward_lstm_2/PartitionedCall/while/merge/_47", "op": "Merge", "input": ["StatefulPartitionedCall/sequential_2/bidirectional_2/forward_lstm_2/PartitionedCall/while/enter/_36", "StatefulPartitionedCall/sequential_2/bidirectional_2/forward_lstm_2/PartitionedCall/while/next_iteration/_83"], "attr": {"N": {"i": "2"}, "T": {"type": "DT_INT32"}}}, {"name": "StatefulPartitionedCall/sequential_2/bidirectional_2/backward_lstm_2/PartitionedCall/while/enter/_99", "op": "Enter", "input": ["StatefulPartitionedCall/sequential_2/bidirectional_2/backward_lstm_2/PartitionedCall/TensorArrayV2_1"], "attr": {"is_constant": {"b": false}, "frame_name": {"s": "U3RhdGVmdWxQYXJ0aXRpb25lZENhbGwvc2VxdWVudGlhbF8yL2JpZGlyZWN0aW9uYWxfMi9iYWNrd2FyZF9sc3RtXzIvUGFydGl0aW9uZWRDYWxsL3doaWxl"}, "T": {"type": "DT_VARIANT"}, "parallel_iterations": {"i": "32"}}}, {"name": "StatefulPartitionedCall/sequential_2/bidirectional_2/backward_lstm_2/PartitionedCall/while/merge/_115", "op": "Merge", "input": ["StatefulPartitionedCall/sequential_2/bidirectional_2/backward_lstm_2/PartitionedCall/while/enter/_104", "StatefulPartitionedCall/sequential_2/bidirectional_2/backward_lstm_2/PartitionedCall/while/next_iteration/_151"], "attr": {"N": {"i": "2"}, "T": {"type": "DT_FLOAT"}}}, {"name": "StatefulPartitionedCall/sequential_2/bidirectional_2/backward_lstm_2/PartitionedCall/while/merge/_116", "op": "Merge", "input": ["StatefulPartitionedCall/sequential_2/bidirectional_2/backward_lstm_2/PartitionedCall/while/enter/_105", "StatefulPartitionedCall/sequential_2/bidirectional_2/backward_lstm_2/PartitionedCall/while/next_iteration/_152"], "attr": {"N": {"i": "2"}, "T": {"type": "DT_FLOAT"}}}, {"name": "StatefulPartitionedCall/sequential_2/bidirectional_2/backward_lstm_2/PartitionedCall/while/merge/_117", "op": "Merge", "input": ["StatefulPartitionedCall/sequential_2/bidirectional_2/backward_lstm_2/PartitionedCall/while/enter/_106", "StatefulPartitionedCall/sequential_2/bidirectional_2/backward_lstm_2/PartitionedCall/while/next_iteration/_153"], "attr": {"N": {"i": "2"}, "T": {"type": "DT_FLOAT"}}}, {"name": "StatefulPartitionedCall/sequential_2/bidirectional_2/backward_lstm_2/PartitionedCall/while/merge/_109", "op": "Merge", "input": ["StatefulPartitionedCall/sequential_2/bidirectional_2/backward_lstm_2/PartitionedCall/while/enter/_98", "StatefulPartitionedCall/sequential_2/bidirectional_2/backward_lstm_2/PartitionedCall/while/next_iteration/_145"], "attr": {"N": {"i": "2"}, "T": {"type": "DT_INT32"}}}, {"name": "StatefulPartitionedCall/sequential_2/bidirectional_2/backward_lstm_2/PartitionedCall/while/merge/_107", "op": "Merge", "input": ["StatefulPartitionedCall/sequential_2/bidirectional_2/backward_lstm_2/PartitionedCall/while/enter/_96", "StatefulPartitionedCall/sequential_2/bidirectional_2/backward_lstm_2/PartitionedCall/while/next_iteration/_143"], "attr": {"N": {"i": "2"}, "_has_manual_control_dependencies": {"b": true}, "T": {"type": "DT_INT32"}}}, {"name": "StatefulPartitionedCall/sequential_2/embedding_2/embedding_lookup", "op": "GatherV2", "input": ["unknown", "StatefulPartitionedCall/sequential_2/embedding_2/Cast", "StatefulPartitionedCall/sequential_2/embedding_2/embedding_lookup/axis"], "attr": {"Taxis": {"type": "DT_INT32"}, "Tparams": {"type": "DT_FLOAT"}, "Tindices": {"type": "DT_INT32"}, "batch_dims": {"i": "0"}, "_has_manual_control_dependencies": {"b": true}}}, {"name": "StatefulPartitionedCall/sequential_2/bidirectional_2/forward_lstm_2/PartitionedCall/while/merge/_50", "op": "Merge", "input": ["StatefulPartitionedCall/sequential_2/bidirectional_2/forward_lstm_2/PartitionedCall/while/enter/_39", "StatefulPartitionedCall/sequential_2/bidirectional_2/forward_lstm_2/PartitionedCall/while/next_iteration/_86"], "attr": {"N": {"i": "2"}, "T": {"type": "DT_VARIANT"}}}, {"name": "StatefulPartitionedCall/sequential_2/bidirectional_2/backward_lstm_2/PartitionedCall/while/merge/_110", "op": "Merge", "input": ["StatefulPartitionedCall/sequential_2/bidirectional_2/backward_lstm_2/PartitionedCall/while/enter/_99", "StatefulPartitionedCall/sequential_2/bidirectional_2/backward_lstm_2/PartitionedCall/while/next_iteration/_146"], "attr": {"N": {"i": "2"}, "T": {"type": "DT_VARIANT"}}}, {"name": "StatefulPartitionedCall/sequential_2/bidirectional_2/forward_lstm_2/Shape", "op": "Shape", "input": ["StatefulPartitionedCall/sequential_2/embedding_2/embedding_lookup"], "attr": {"T": {"type": "DT_FLOAT"}, "out_type": {"type": "DT_INT32"}}, "experimentalType": {"typeId": "TFT_PRODUCT", "args": [{"typeId": "TFT_SHAPE_TENSOR", "args": [{"typeId": "TFT_INT32"}]}]}}, {"name": "StatefulPartitionedCall/sequential_2/bidirectional_2/forward_lstm_2/PartitionedCall/transpose", "op": "Transpose", "input": ["StatefulPartitionedCall/sequential_2/embedding_2/embedding_lookup", "StatefulPartitionedCall/sequential_2/bidirectional_2/forward_lstm_2/PartitionedCall/transpose/perm"], "attr": {"Tperm": {"type": "DT_INT32"}, "_input_shapes": {"list": {"shape": [{"dim": [{"size": "-2"}, {"size": "-10"}, {"size": "100"}]}, {"dim": [{"size": "3"}]}]}}, "T": {"type": "DT_FLOAT"}}}, {"name": "StatefulPartitionedCall/sequential_2/bidirectional_2/backward_lstm_2/Shape", "op": "Shape", "input": ["StatefulPartitionedCall/sequential_2/embedding_2/embedding_lookup"], "attr": {"T": {"type": "DT_FLOAT"}, "out_type": {"type": "DT_INT32"}}, "experimentalType": {"typeId": "TFT_PRODUCT", "args": [{"typeId": "TFT_SHAPE_TENSOR", "args": [{"typeId": "TFT_INT32"}]}]}}, {"name": "StatefulPartitionedCall/sequential_2/bidirectional_2/backward_lstm_2/PartitionedCall/transpose", "op": "Transpose", "input": ["StatefulPartitionedCall/sequential_2/embedding_2/embedding_lookup", "StatefulPartitionedCall/sequential_2/bidirectional_2/backward_lstm_2/PartitionedCall/transpose/perm"], "attr": {"Tperm": {"type": "DT_INT32"}, "_input_shapes": {"list": {"shape": [{"dim": [{"size": "-2"}, {"size": "-10"}, {"size": "100"}]}, {"dim": [{"size": "3"}]}]}}, "T": {"type": "DT_FLOAT"}}}, {"name": "StatefulPartitionedCall/sequential_2/bidirectional_2/forward_lstm_2/strided_slice", "op": "StridedSlice", "input": ["StatefulPartitionedCall/sequential_2/bidirectional_2/forward_lstm_2/Shape", "StatefulPartitionedCall/sequential_2/bidirectional_2/forward_lstm_2/strided_slice/stack", "StatefulPartitionedCall/sequential_2/bidirectional_2/forward_lstm_2/strided_slice/stack_1", "StatefulPartitionedCall/sequential_2/bidirectional_2/forward_lstm_2/strided_slice/stack_2"], "attr": {"shrink_axis_mask": {"i": "1"}, "new_axis_mask": {"i": "0"}, "Index": {"type": "DT_INT32"}, "begin_mask": {"i": "0"}, "end_mask": {"i": "0"}, "T": {"type": "DT_INT32"}, "ellipsis_mask": {"i": "0"}}}, {"name": "StatefulPartitionedCall/sequential_2/bidirectional_2/forward_lstm_2/PartitionedCall/TensorArrayUnstack/TensorListFromTensor", "op": "TensorListFromTensor", "input": ["StatefulPartitionedCall/sequential_2/bidirectional_2/forward_lstm_2/PartitionedCall/transpose", "StatefulPartitionedCall/sequential_2/bidirectional_2/forward_lstm_2/PartitionedCall/TensorArrayUnstack/TensorListFromTensor/element_shape"], "attr": {"shape_type": {"type": "DT_INT32"}, "element_dtype": {"type": "DT_FLOAT"}}, "experimentalType": {"typeId": "TFT_PRODUCT", "args": [{"typeId": "TFT_ARRAY", "args": [{"typeId": "TFT_TENSOR", "args": [{"typeId": "TFT_FLOAT"}]}]}]}}, {"name": "StatefulPartitionedCall/sequential_2/bidirectional_2/forward_lstm_2/PartitionedCall/Shape", "op": "Shape", "input": ["StatefulPartitionedCall/sequential_2/bidirectional_2/forward_lstm_2/PartitionedCall/transpose"], "attr": {"T": {"type": "DT_FLOAT"}, "out_type": {"type": "DT_INT32"}}, "experimentalType": {"typeId": "TFT_PRODUCT", "args": [{"typeId": "TFT_SHAPE_TENSOR", "args": [{"typeId": "TFT_INT32"}]}]}}, {"name": "StatefulPartitionedCall/sequential_2/bidirectional_2/backward_lstm_2/strided_slice", "op": "StridedSlice", "input": ["StatefulPartitionedCall/sequential_2/bidirectional_2/backward_lstm_2/Shape", "StatefulPartitionedCall/sequential_2/bidirectional_2/backward_lstm_2/strided_slice/stack", "StatefulPartitionedCall/sequential_2/bidirectional_2/backward_lstm_2/strided_slice/stack_1", "StatefulPartitionedCall/sequential_2/bidirectional_2/backward_lstm_2/strided_slice/stack_2"], "attr": {"shrink_axis_mask": {"i": "1"}, "new_axis_mask": {"i": "0"}, "Index": {"type": "DT_INT32"}, "begin_mask": {"i": "0"}, "T": {"type": "DT_INT32"}, "end_mask": {"i": "0"}, "ellipsis_mask": {"i": "0"}}}, {"name": "StatefulPartitionedCall/sequential_2/bidirectional_2/backward_lstm_2/PartitionedCall/ReverseV2", "op": "ReverseV2", "input": ["StatefulPartitionedCall/sequential_2/bidirectional_2/backward_lstm_2/PartitionedCall/transpose", "StatefulPartitionedCall/sequential_2/bidirectional_2/backward_lstm_2/PartitionedCall/ReverseV2/axis"], "attr": {"Tidx": {"type": "DT_INT32"}, "T": {"type": "DT_FLOAT"}}}, {"name": "StatefulPartitionedCall/sequential_2/bidirectional_2/backward_lstm_2/PartitionedCall/Shape", "op": "Shape", "input": ["StatefulPartitionedCall/sequential_2/bidirectional_2/backward_lstm_2/PartitionedCall/transpose"], "attr": {"T": {"type": "DT_FLOAT"}, "out_type": {"type": "DT_INT32"}}, "experimentalType": {"typeId": "TFT_PRODUCT", "args": [{"typeId": "TFT_SHAPE_TENSOR", "args": [{"typeId": "TFT_INT32"}]}]}}, {"name": "StatefulPartitionedCall/sequential_2/bidirectional_2/forward_lstm_2/zeros_1/packed", "op": "Pack", "input": ["StatefulPartitionedCall/sequential_2/bidirectional_2/forward_lstm_2/strided_slice", "StatefulPartitionedCall/sequential_2/bidirectional_2/forward_lstm_2/zeros_1/packed/1"], "attr": {"N": {"i": "2"}, "axis": {"i": "0"}, "T": {"type": "DT_INT32"}}}, {"name": "StatefulPartitionedCall/sequential_2/bidirectional_2/forward_lstm_2/zeros/packed", "op": "Pack", "input": ["StatefulPartitionedCall/sequential_2/bidirectional_2/forward_lstm_2/strided_slice", "StatefulPartitionedCall/sequential_2/bidirectional_2/forward_lstm_2/zeros/packed/1"], "attr": {"N": {"i": "2"}, "axis": {"i": "0"}, "T": {"type": "DT_INT32"}}}, {"name": "StatefulPartitionedCall/sequential_2/bidirectional_2/forward_lstm_2/PartitionedCall/while/enter/_43", "op": "Enter", "input": ["StatefulPartitionedCall/sequential_2/bidirectional_2/forward_lstm_2/PartitionedCall/TensorArrayUnstack/TensorListFromTensor"], "attr": {"is_constant": {"b": false}, "frame_name": {"s": "U3RhdGVmdWxQYXJ0aXRpb25lZENhbGwvc2VxdWVudGlhbF8yL2JpZGlyZWN0aW9uYWxfMi9mb3J3YXJkX2xzdG1fMi9QYXJ0aXRpb25lZENhbGwvd2hpbGU="}, "T": {"type": "DT_VARIANT"}, "parallel_iterations": {"i": "32"}}}, {"name": "StatefulPartitionedCall/sequential_2/bidirectional_2/forward_lstm_2/PartitionedCall/strided_slice", "op": "StridedSlice", "input": ["StatefulPartitionedCall/sequential_2/bidirectional_2/forward_lstm_2/PartitionedCall/Shape", "StatefulPartitionedCall/sequential_2/bidirectional_2/forward_lstm_2/PartitionedCall/strided_slice/stack", "StatefulPartitionedCall/sequential_2/bidirectional_2/forward_lstm_2/PartitionedCall/strided_slice/stack_1", "StatefulPartitionedCall/sequential_2/bidirectional_2/forward_lstm_2/PartitionedCall/strided_slice/stack_2"], "attr": {"shrink_axis_mask": {"i": "1"}, "new_axis_mask": {"i": "0"}, "Index": {"type": "DT_INT32"}, "begin_mask": {"i": "0"}, "end_mask": {"i": "0"}, "T": {"type": "DT_INT32"}, "ellipsis_mask": {"i": "0"}}}, {"name": "StatefulPartitionedCall/sequential_2/bidirectional_2/backward_lstm_2/zeros_1/packed", "op": "Pack", "input": ["StatefulPartitionedCall/sequential_2/bidirectional_2/backward_lstm_2/strided_slice", "StatefulPartitionedCall/sequential_2/bidirectional_2/backward_lstm_2/zeros_1/packed/1"], "attr": {"N": {"i": "2"}, "axis": {"i": "0"}, "T": {"type": "DT_INT32"}}}, {"name": "StatefulPartitionedCall/sequential_2/bidirectional_2/backward_lstm_2/zeros/packed", "op": "Pack", "input": ["StatefulPartitionedCall/sequential_2/bidirectional_2/backward_lstm_2/strided_slice", "StatefulPartitionedCall/sequential_2/bidirectional_2/backward_lstm_2/zeros/packed/1"], "attr": {"N": {"i": "2"}, "axis": {"i": "0"}, "T": {"type": "DT_INT32"}}}, {"name": "StatefulPartitionedCall/sequential_2/bidirectional_2/backward_lstm_2/PartitionedCall/TensorArrayUnstack/TensorListFromTensor", "op": "TensorListFromTensor", "input": ["StatefulPartitionedCall/sequential_2/bidirectional_2/backward_lstm_2/PartitionedCall/ReverseV2", "StatefulPartitionedCall/sequential_2/bidirectional_2/backward_lstm_2/PartitionedCall/TensorArrayUnstack/TensorListFromTensor/element_shape"], "attr": {"shape_type": {"type": "DT_INT32"}, "element_dtype": {"type": "DT_FLOAT"}}, "experimentalType": {"typeId": "TFT_PRODUCT", "args": [{"typeId": "TFT_ARRAY", "args": [{"typeId": "TFT_TENSOR", "args": [{"typeId": "TFT_FLOAT"}]}]}]}}, {"name": "StatefulPartitionedCall/sequential_2/bidirectional_2/backward_lstm_2/PartitionedCall/strided_slice", "op": "StridedSlice", "input": ["StatefulPartitionedCall/sequential_2/bidirectional_2/backward_lstm_2/PartitionedCall/Shape", "StatefulPartitionedCall/sequential_2/bidirectional_2/backward_lstm_2/PartitionedCall/strided_slice/stack", "StatefulPartitionedCall/sequential_2/bidirectional_2/backward_lstm_2/PartitionedCall/strided_slice/stack_1", "StatefulPartitionedCall/sequential_2/bidirectional_2/backward_lstm_2/PartitionedCall/strided_slice/stack_2"], "attr": {"shrink_axis_mask": {"i": "1"}, "Index": {"type": "DT_INT32"}, "new_axis_mask": {"i": "0"}, "begin_mask": {"i": "0"}, "T": {"type": "DT_INT32"}, "end_mask": {"i": "0"}, "ellipsis_mask": {"i": "0"}}}, {"name": "StatefulPartitionedCall/sequential_2/bidirectional_2/forward_lstm_2/zeros_1", "op": "Fill", "input": ["StatefulPartitionedCall/sequential_2/bidirectional_2/forward_lstm_2/zeros_1/packed", "StatefulPartitionedCall/sequential_2/bidirectional_2/forward_lstm_2/zeros_1/Const"], "attr": {"T": {"type": "DT_FLOAT"}, "index_type": {"type": "DT_INT32"}}}, {"name": "StatefulPartitionedCall/sequential_2/bidirectional_2/forward_lstm_2/zeros", "op": "Fill", "input": ["StatefulPartitionedCall/sequential_2/bidirectional_2/forward_lstm_2/zeros/packed", "StatefulPartitionedCall/sequential_2/bidirectional_2/forward_lstm_2/zeros/Const"], "attr": {"T": {"type": "DT_FLOAT"}, "index_type": {"type": "DT_INT32"}}}, {"name": "StatefulPartitionedCall/sequential_2/bidirectional_2/forward_lstm_2/PartitionedCall/while/merge/_54", "op": "Merge", "input": ["StatefulPartitionedCall/sequential_2/bidirectional_2/forward_lstm_2/PartitionedCall/while/enter/_43", "StatefulPartitionedCall/sequential_2/bidirectional_2/forward_lstm_2/PartitionedCall/while/next_iteration/_90"], "attr": {"N": {"i": "2"}, "T": {"type": "DT_VARIANT"}}}, {"name": "StatefulPartitionedCall/sequential_2/bidirectional_2/forward_lstm_2/PartitionedCall/while/enter/_42", "op": "Enter", "input": ["StatefulPartitionedCall/sequential_2/bidirectional_2/forward_lstm_2/PartitionedCall/strided_slice"], "attr": {"is_constant": {"b": false}, "frame_name": {"s": "U3RhdGVmdWxQYXJ0aXRpb25lZENhbGwvc2VxdWVudGlhbF8yL2JpZGlyZWN0aW9uYWxfMi9mb3J3YXJkX2xzdG1fMi9QYXJ0aXRpb25lZENhbGwvd2hpbGU="}, "T": {"type": "DT_INT32"}, "parallel_iterations": {"i": "32"}}}, {"name": "StatefulPartitionedCall/sequential_2/bidirectional_2/backward_lstm_2/zeros_1", "op": "Fill", "input": ["StatefulPartitionedCall/sequential_2/bidirectional_2/backward_lstm_2/zeros_1/packed", "StatefulPartitionedCall/sequential_2/bidirectional_2/backward_lstm_2/zeros_1/Const"], "attr": {"T": {"type": "DT_FLOAT"}, "index_type": {"type": "DT_INT32"}}}, {"name": "StatefulPartitionedCall/sequential_2/bidirectional_2/backward_lstm_2/zeros", "op": "Fill", "input": ["StatefulPartitionedCall/sequential_2/bidirectional_2/backward_lstm_2/zeros/packed", "StatefulPartitionedCall/sequential_2/bidirectional_2/backward_lstm_2/zeros/Const"], "attr": {"T": {"type": "DT_FLOAT"}, "index_type": {"type": "DT_INT32"}}}, {"name": "StatefulPartitionedCall/sequential_2/bidirectional_2/backward_lstm_2/PartitionedCall/while/enter/_103", "op": "Enter", "input": ["StatefulPartitionedCall/sequential_2/bidirectional_2/backward_lstm_2/PartitionedCall/TensorArrayUnstack/TensorListFromTensor"], "attr": {"is_constant": {"b": false}, "frame_name": {"s": "U3RhdGVmdWxQYXJ0aXRpb25lZENhbGwvc2VxdWVudGlhbF8yL2JpZGlyZWN0aW9uYWxfMi9iYWNrd2FyZF9sc3RtXzIvUGFydGl0aW9uZWRDYWxsL3doaWxl"}, "T": {"type": "DT_VARIANT"}, "parallel_iterations": {"i": "32"}}}, {"name": "StatefulPartitionedCall/sequential_2/bidirectional_2/backward_lstm_2/PartitionedCall/while/enter/_102", "op": "Enter", "input": ["StatefulPartitionedCall/sequential_2/bidirectional_2/backward_lstm_2/PartitionedCall/strided_slice"], "attr": {"is_constant": {"b": false}, "frame_name": {"s": "U3RhdGVmdWxQYXJ0aXRpb25lZENhbGwvc2VxdWVudGlhbF8yL2JpZGlyZWN0aW9uYWxfMi9iYWNrd2FyZF9sc3RtXzIvUGFydGl0aW9uZWRDYWxsL3doaWxl"}, "T": {"type": "DT_INT32"}, "parallel_iterations": {"i": "32"}}}, {"name": "StatefulPartitionedCall/sequential_2/bidirectional_2/forward_lstm_2/PartitionedCall/while/enter/_41", "op": "Enter", "input": ["StatefulPartitionedCall/sequential_2/bidirectional_2/forward_lstm_2/zeros_1"], "attr": {"is_constant": {"b": false}, "frame_name": {"s": "U3RhdGVmdWxQYXJ0aXRpb25lZENhbGwvc2VxdWVudGlhbF8yL2JpZGlyZWN0aW9uYWxfMi9mb3J3YXJkX2xzdG1fMi9QYXJ0aXRpb25lZENhbGwvd2hpbGU="}, "T": {"type": "DT_FLOAT"}, "parallel_iterations": {"i": "32"}}}, {"name": "StatefulPartitionedCall/sequential_2/bidirectional_2/forward_lstm_2/PartitionedCall/while/enter/_40", "op": "Enter", "input": ["StatefulPartitionedCall/sequential_2/bidirectional_2/forward_lstm_2/zeros"], "attr": {"is_constant": {"b": false}, "frame_name": {"s": "U3RhdGVmdWxQYXJ0aXRpb25lZENhbGwvc2VxdWVudGlhbF8yL2JpZGlyZWN0aW9uYWxfMi9mb3J3YXJkX2xzdG1fMi9QYXJ0aXRpb25lZENhbGwvd2hpbGU="}, "T": {"type": "DT_FLOAT"}, "parallel_iterations": {"i": "32"}}}, {"name": "StatefulPartitionedCall/sequential_2/bidirectional_2/forward_lstm_2/PartitionedCall/while/merge/_53", "op": "Merge", "input": ["StatefulPartitionedCall/sequential_2/bidirectional_2/forward_lstm_2/PartitionedCall/while/enter/_42", "StatefulPartitionedCall/sequential_2/bidirectional_2/forward_lstm_2/PartitionedCall/while/next_iteration/_89"], "attr": {"N": {"i": "2"}, "T": {"type": "DT_INT32"}}}, {"name": "StatefulPartitionedCall/sequential_2/bidirectional_2/backward_lstm_2/PartitionedCall/while/enter/_101", "op": "Enter", "input": ["StatefulPartitionedCall/sequential_2/bidirectional_2/backward_lstm_2/zeros_1"], "attr": {"is_constant": {"b": false}, "frame_name": {"s": "U3RhdGVmdWxQYXJ0aXRpb25lZENhbGwvc2VxdWVudGlhbF8yL2JpZGlyZWN0aW9uYWxfMi9iYWNrd2FyZF9sc3RtXzIvUGFydGl0aW9uZWRDYWxsL3doaWxl"}, "T": {"type": "DT_FLOAT"}, "parallel_iterations": {"i": "32"}}}, {"name": "StatefulPartitionedCall/sequential_2/bidirectional_2/backward_lstm_2/PartitionedCall/while/enter/_100", "op": "Enter", "input": ["StatefulPartitionedCall/sequential_2/bidirectional_2/backward_lstm_2/zeros"], "attr": {"is_constant": {"b": false}, "frame_name": {"s": "U3RhdGVmdWxQYXJ0aXRpb25lZENhbGwvc2VxdWVudGlhbF8yL2JpZGlyZWN0aW9uYWxfMi9iYWNrd2FyZF9sc3RtXzIvUGFydGl0aW9uZWRDYWxsL3doaWxl"}, "T": {"type": "DT_FLOAT"}, "parallel_iterations": {"i": "32"}}}, {"name": "StatefulPartitionedCall/sequential_2/bidirectional_2/backward_lstm_2/PartitionedCall/while/merge/_114", "op": "Merge", "input": ["StatefulPartitionedCall/sequential_2/bidirectional_2/backward_lstm_2/PartitionedCall/while/enter/_103", "StatefulPartitionedCall/sequential_2/bidirectional_2/backward_lstm_2/PartitionedCall/while/next_iteration/_150"], "attr": {"N": {"i": "2"}, "T": {"type": "DT_VARIANT"}}}, {"name": "StatefulPartitionedCall/sequential_2/bidirectional_2/backward_lstm_2/PartitionedCall/while/merge/_113", "op": "Merge", "input": ["StatefulPartitionedCall/sequential_2/bidirectional_2/backward_lstm_2/PartitionedCall/while/enter/_102", "StatefulPartitionedCall/sequential_2/bidirectional_2/backward_lstm_2/PartitionedCall/while/next_iteration/_149"], "attr": {"N": {"i": "2"}, "T": {"type": "DT_INT32"}}}, {"name": "StatefulPartitionedCall/sequential_2/bidirectional_2/forward_lstm_2/PartitionedCall/while/merge/_52", "op": "Merge", "input": ["StatefulPartitionedCall/sequential_2/bidirectional_2/forward_lstm_2/PartitionedCall/while/enter/_41", "StatefulPartitionedCall/sequential_2/bidirectional_2/forward_lstm_2/PartitionedCall/while/next_iteration/_88"], "attr": {"N": {"i": "2"}, "T": {"type": "DT_FLOAT"}}}, {"name": "StatefulPartitionedCall/sequential_2/bidirectional_2/forward_lstm_2/PartitionedCall/while/merge/_51", "op": "Merge", "input": ["StatefulPartitionedCall/sequential_2/bidirectional_2/forward_lstm_2/PartitionedCall/while/enter/_40", "StatefulPartitionedCall/sequential_2/bidirectional_2/forward_lstm_2/PartitionedCall/while/next_iteration/_87"], "attr": {"N": {"i": "2"}, "T": {"type": "DT_FLOAT"}}}, {"name": "StatefulPartitionedCall/sequential_2/bidirectional_2/forward_lstm_2/PartitionedCall/while/cond/_34/while/Less", "op": "Less", "input": ["StatefulPartitionedCall/sequential_2/bidirectional_2/forward_lstm_2/PartitionedCall/while/merge/_49", "StatefulPartitionedCall/sequential_2/bidirectional_2/forward_lstm_2/PartitionedCall/while/merge/_53", "^StatefulPartitionedCall/sequential_2/bidirectional_2/forward_lstm_2/PartitionedCall/while/merge/_47"], "attr": {"T": {"type": "DT_INT32"}}}, {"name": "StatefulPartitionedCall/sequential_2/bidirectional_2/backward_lstm_2/PartitionedCall/while/merge/_112", "op": "Merge", "input": ["StatefulPartitionedCall/sequential_2/bidirectional_2/backward_lstm_2/PartitionedCall/while/enter/_101", "StatefulPartitionedCall/sequential_2/bidirectional_2/backward_lstm_2/PartitionedCall/while/next_iteration/_148"], "attr": {"N": {"i": "2"}, "T": {"type": "DT_FLOAT"}}}, {"name": "StatefulPartitionedCall/sequential_2/bidirectional_2/backward_lstm_2/PartitionedCall/while/merge/_111", "op": "Merge", "input": ["StatefulPartitionedCall/sequential_2/bidirectional_2/backward_lstm_2/PartitionedCall/while/enter/_100", "StatefulPartitionedCall/sequential_2/bidirectional_2/backward_lstm_2/PartitionedCall/while/next_iteration/_147"], "attr": {"N": {"i": "2"}, "T": {"type": "DT_FLOAT"}}}, {"name": "StatefulPartitionedCall/sequential_2/bidirectional_2/backward_lstm_2/PartitionedCall/while/cond/_94/while/Less", "op": "Less", "input": ["StatefulPartitionedCall/sequential_2/bidirectional_2/backward_lstm_2/PartitionedCall/while/merge/_109", "StatefulPartitionedCall/sequential_2/bidirectional_2/backward_lstm_2/PartitionedCall/while/merge/_113", "^StatefulPartitionedCall/sequential_2/bidirectional_2/backward_lstm_2/PartitionedCall/while/merge/_107"], "attr": {"T": {"type": "DT_INT32"}}}, {"name": "StatefulPartitionedCall/sequential_2/bidirectional_2/forward_lstm_2/PartitionedCall/while/LoopCond/_58", "op": "LoopCond", "input": ["StatefulPartitionedCall/sequential_2/bidirectional_2/forward_lstm_2/PartitionedCall/while/cond/_34/while/Less"]}, {"name": "StatefulPartitionedCall/sequential_2/bidirectional_2/backward_lstm_2/PartitionedCall/while/LoopCond/_118", "op": "LoopCond", "input": ["StatefulPartitionedCall/sequential_2/bidirectional_2/backward_lstm_2/PartitionedCall/while/cond/_94/while/Less"]}, {"name": "StatefulPartitionedCall/sequential_2/bidirectional_2/forward_lstm_2/PartitionedCall/while/Func/StatefulPartitionedCall/sequential_2/bidirectional_2/forward_lstm_2/PartitionedCall/input/_14_switch/_64", "op": "Switch", "input": ["StatefulPartitionedCall/sequential_2/bidirectional_2/forward_lstm_2/PartitionedCall/while/merge/_52", "StatefulPartitionedCall/sequential_2/bidirectional_2/forward_lstm_2/PartitionedCall/while/LoopCond/_58"], "attr": {"T": {"type": "DT_FLOAT"}}}, {"name": "StatefulPartitionedCall/sequential_2/bidirectional_2/forward_lstm_2/PartitionedCall/while/StatefulPartitionedCall/sequential_2/bidirectional_2/forward_lstm_2/PartitionedCall/TensorArrayUnstack/TensorListFromTensor_switch/_66", "op": "Switch", "input": ["StatefulPartitionedCall/sequential_2/bidirectional_2/forward_lstm_2/PartitionedCall/while/merge/_54", "StatefulPartitionedCall/sequential_2/bidirectional_2/forward_lstm_2/PartitionedCall/while/LoopCond/_58"], "attr": {"T": {"type": "DT_VARIANT"}}}, {"name": "StatefulPartitionedCall/sequential_2/bidirectional_2/forward_lstm_2/PartitionedCall/while/Func/StatefulPartitionedCall/sequential_2/bidirectional_2/forward_lstm_2/PartitionedCall/input/_15_switch/_67", "op": "Switch", "input": ["StatefulPartitionedCall/sequential_2/bidirectional_2/forward_lstm_2/PartitionedCall/while/merge/_55", "StatefulPartitionedCall/sequential_2/bidirectional_2/forward_lstm_2/PartitionedCall/while/LoopCond/_58"], "attr": {"T": {"type": "DT_FLOAT"}}}, {"name": "StatefulPartitionedCall/sequential_2/bidirectional_2/forward_lstm_2/PartitionedCall/while/Func/StatefulPartitionedCall/sequential_2/bidirectional_2/forward_lstm_2/PartitionedCall/input/_13_switch/_63", "op": "Switch", "input": ["StatefulPartitionedCall/sequential_2/bidirectional_2/forward_lstm_2/PartitionedCall/while/merge/_51", "StatefulPartitionedCall/sequential_2/bidirectional_2/forward_lstm_2/PartitionedCall/while/LoopCond/_58"], "attr": {"T": {"type": "DT_FLOAT"}}}, {"name": "StatefulPartitionedCall/sequential_2/bidirectional_2/forward_lstm_2/PartitionedCall/while/Func/StatefulPartitionedCall/sequential_2/bidirectional_2/forward_lstm_2/PartitionedCall/input/_16_switch/_68", "op": "Switch", "input": ["StatefulPartitionedCall/sequential_2/bidirectional_2/forward_lstm_2/PartitionedCall/while/merge/_56", "StatefulPartitionedCall/sequential_2/bidirectional_2/forward_lstm_2/PartitionedCall/while/LoopCond/_58"], "attr": {"T": {"type": "DT_FLOAT"}}}, {"name": "StatefulPartitionedCall/sequential_2/bidirectional_2/forward_lstm_2/PartitionedCall/while/Func/StatefulPartitionedCall/sequential_2/bidirectional_2/forward_lstm_2/PartitionedCall/input/_17_switch/_69", "op": "Switch", "input": ["StatefulPartitionedCall/sequential_2/bidirectional_2/forward_lstm_2/PartitionedCall/while/merge/_57", "StatefulPartitionedCall/sequential_2/bidirectional_2/forward_lstm_2/PartitionedCall/while/LoopCond/_58"], "attr": {"T": {"type": "DT_FLOAT"}}}, {"name": "StatefulPartitionedCall/sequential_2/bidirectional_2/forward_lstm_2/PartitionedCall/while/StatefulPartitionedCall/sequential_2/bidirectional_2/forward_lstm_2/PartitionedCall/time_switch/_61", "op": "Switch", "input": ["StatefulPartitionedCall/sequential_2/bidirectional_2/forward_lstm_2/PartitionedCall/while/merge/_49", "StatefulPartitionedCall/sequential_2/bidirectional_2/forward_lstm_2/PartitionedCall/while/LoopCond/_58"], "attr": {"T": {"type": "DT_INT32"}}}, {"name": "StatefulPartitionedCall/sequential_2/bidirectional_2/forward_lstm_2/PartitionedCall/while/StatefulPartitionedCall/sequential_2/bidirectional_2/forward_lstm_2/PartitionedCall/while/loop_counter_switch/_59", "op": "Switch", "input": ["StatefulPartitionedCall/sequential_2/bidirectional_2/forward_lstm_2/PartitionedCall/while/merge/_47", "StatefulPartitionedCall/sequential_2/bidirectional_2/forward_lstm_2/PartitionedCall/while/LoopCond/_58"], "attr": {"T": {"type": "DT_INT32"}}}, {"name": "StatefulPartitionedCall/sequential_2/bidirectional_2/forward_lstm_2/PartitionedCall/while/StatefulPartitionedCall/sequential_2/bidirectional_2/forward_lstm_2/PartitionedCall/TensorArrayV2_1_switch/_62", "op": "Switch", "input": ["StatefulPartitionedCall/sequential_2/bidirectional_2/forward_lstm_2/PartitionedCall/while/merge/_50", "StatefulPartitionedCall/sequential_2/bidirectional_2/forward_lstm_2/PartitionedCall/while/LoopCond/_58"], "attr": {"T": {"type": "DT_VARIANT"}}}, {"name": "StatefulPartitionedCall/sequential_2/bidirectional_2/forward_lstm_2/PartitionedCall/while/StatefulPartitionedCall/sequential_2/bidirectional_2/forward_lstm_2/PartitionedCall/strided_slice_switch/_65", "op": "Switch", "input": ["StatefulPartitionedCall/sequential_2/bidirectional_2/forward_lstm_2/PartitionedCall/while/merge/_53", "StatefulPartitionedCall/sequential_2/bidirectional_2/forward_lstm_2/PartitionedCall/while/LoopCond/_58"], "attr": {"T": {"type": "DT_INT32"}}}, {"name": "StatefulPartitionedCall/sequential_2/bidirectional_2/backward_lstm_2/PartitionedCall/while/Func/StatefulPartitionedCall/sequential_2/bidirectional_2/backward_lstm_2/PartitionedCall/input/_25_switch/_124", "op": "Switch", "input": ["StatefulPartitionedCall/sequential_2/bidirectional_2/backward_lstm_2/PartitionedCall/while/merge/_112", "StatefulPartitionedCall/sequential_2/bidirectional_2/backward_lstm_2/PartitionedCall/while/LoopCond/_118"], "attr": {"T": {"type": "DT_FLOAT"}}}, {"name": "StatefulPartitionedCall/sequential_2/bidirectional_2/backward_lstm_2/PartitionedCall/while/StatefulPartitionedCall/sequential_2/bidirectional_2/backward_lstm_2/PartitionedCall/TensorArrayUnstack/TensorListFromTensor_switch/_126", "op": "Switch", "input": ["StatefulPartitionedCall/sequential_2/bidirectional_2/backward_lstm_2/PartitionedCall/while/merge/_114", "StatefulPartitionedCall/sequential_2/bidirectional_2/backward_lstm_2/PartitionedCall/while/LoopCond/_118"], "attr": {"T": {"type": "DT_VARIANT"}}}, {"name": "StatefulPartitionedCall/sequential_2/bidirectional_2/backward_lstm_2/PartitionedCall/while/Func/StatefulPartitionedCall/sequential_2/bidirectional_2/backward_lstm_2/PartitionedCall/input/_26_switch/_127", "op": "Switch", "input": ["StatefulPartitionedCall/sequential_2/bidirectional_2/backward_lstm_2/PartitionedCall/while/merge/_115", "StatefulPartitionedCall/sequential_2/bidirectional_2/backward_lstm_2/PartitionedCall/while/LoopCond/_118"], "attr": {"T": {"type": "DT_FLOAT"}}}, {"name": "StatefulPartitionedCall/sequential_2/bidirectional_2/backward_lstm_2/PartitionedCall/while/Func/StatefulPartitionedCall/sequential_2/bidirectional_2/backward_lstm_2/PartitionedCall/input/_24_switch/_123", "op": "Switch", "input": ["StatefulPartitionedCall/sequential_2/bidirectional_2/backward_lstm_2/PartitionedCall/while/merge/_111", "StatefulPartitionedCall/sequential_2/bidirectional_2/backward_lstm_2/PartitionedCall/while/LoopCond/_118"], "attr": {"T": {"type": "DT_FLOAT"}}}, {"name": "StatefulPartitionedCall/sequential_2/bidirectional_2/backward_lstm_2/PartitionedCall/while/Func/StatefulPartitionedCall/sequential_2/bidirectional_2/backward_lstm_2/PartitionedCall/input/_27_switch/_128", "op": "Switch", "input": ["StatefulPartitionedCall/sequential_2/bidirectional_2/backward_lstm_2/PartitionedCall/while/merge/_116", "StatefulPartitionedCall/sequential_2/bidirectional_2/backward_lstm_2/PartitionedCall/while/LoopCond/_118"], "attr": {"T": {"type": "DT_FLOAT"}}}, {"name": "StatefulPartitionedCall/sequential_2/bidirectional_2/backward_lstm_2/PartitionedCall/while/Func/StatefulPartitionedCall/sequential_2/bidirectional_2/backward_lstm_2/PartitionedCall/input/_28_switch/_129", "op": "Switch", "input": ["StatefulPartitionedCall/sequential_2/bidirectional_2/backward_lstm_2/PartitionedCall/while/merge/_117", "StatefulPartitionedCall/sequential_2/bidirectional_2/backward_lstm_2/PartitionedCall/while/LoopCond/_118"], "attr": {"T": {"type": "DT_FLOAT"}}}, {"name": "StatefulPartitionedCall/sequential_2/bidirectional_2/backward_lstm_2/PartitionedCall/while/StatefulPartitionedCall/sequential_2/bidirectional_2/backward_lstm_2/PartitionedCall/time_switch/_121", "op": "Switch", "input": ["StatefulPartitionedCall/sequential_2/bidirectional_2/backward_lstm_2/PartitionedCall/while/merge/_109", "StatefulPartitionedCall/sequential_2/bidirectional_2/backward_lstm_2/PartitionedCall/while/LoopCond/_118"], "attr": {"T": {"type": "DT_INT32"}}}, {"name": "StatefulPartitionedCall/sequential_2/bidirectional_2/backward_lstm_2/PartitionedCall/while/StatefulPartitionedCall/sequential_2/bidirectional_2/backward_lstm_2/PartitionedCall/while/loop_counter_switch/_119", "op": "Switch", "input": ["StatefulPartitionedCall/sequential_2/bidirectional_2/backward_lstm_2/PartitionedCall/while/merge/_107", "StatefulPartitionedCall/sequential_2/bidirectional_2/backward_lstm_2/PartitionedCall/while/LoopCond/_118"], "attr": {"T": {"type": "DT_INT32"}}}, {"name": "StatefulPartitionedCall/sequential_2/bidirectional_2/backward_lstm_2/PartitionedCall/while/StatefulPartitionedCall/sequential_2/bidirectional_2/backward_lstm_2/PartitionedCall/TensorArrayV2_1_switch/_122", "op": "Switch", "input": ["StatefulPartitionedCall/sequential_2/bidirectional_2/backward_lstm_2/PartitionedCall/while/merge/_110", "StatefulPartitionedCall/sequential_2/bidirectional_2/backward_lstm_2/PartitionedCall/while/LoopCond/_118"], "attr": {"T": {"type": "DT_VARIANT"}}}, {"name": "StatefulPartitionedCall/sequential_2/bidirectional_2/backward_lstm_2/PartitionedCall/while/StatefulPartitionedCall/sequential_2/bidirectional_2/backward_lstm_2/PartitionedCall/strided_slice_switch/_125", "op": "Switch", "input": ["StatefulPartitionedCall/sequential_2/bidirectional_2/backward_lstm_2/PartitionedCall/while/merge/_113", "StatefulPartitionedCall/sequential_2/bidirectional_2/backward_lstm_2/PartitionedCall/while/LoopCond/_118"], "attr": {"T": {"type": "DT_INT32"}}}, {"name": "StatefulPartitionedCall/sequential_2/bidirectional_2/forward_lstm_2/PartitionedCall/while/loop_body_control/_70", "op": "Identity", "input": ["StatefulPartitionedCall/sequential_2/bidirectional_2/forward_lstm_2/PartitionedCall/while/StatefulPartitionedCall/sequential_2/bidirectional_2/forward_lstm_2/PartitionedCall/while/loop_counter_switch/_59:1"], "attr": {"_has_manual_control_dependencies": {"b": true}, "T": {"type": "DT_INT32"}}}, {"name": "StatefulPartitionedCall/sequential_2/bidirectional_2/forward_lstm_2/PartitionedCall/while/exit/_74", "op": "Exit", "input": ["StatefulPartitionedCall/sequential_2/bidirectional_2/forward_lstm_2/PartitionedCall/while/StatefulPartitionedCall/sequential_2/bidirectional_2/forward_lstm_2/PartitionedCall/TensorArrayV2_1_switch/_62"], "attr": {"T": {"type": "DT_VARIANT"}}}, {"name": "StatefulPartitionedCall/sequential_2/bidirectional_2/backward_lstm_2/PartitionedCall/while/loop_body_control/_130", "op": "Identity", "input": ["StatefulPartitionedCall/sequential_2/bidirectional_2/backward_lstm_2/PartitionedCall/while/StatefulPartitionedCall/sequential_2/bidirectional_2/backward_lstm_2/PartitionedCall/while/loop_counter_switch/_119:1"], "attr": {"_has_manual_control_dependencies": {"b": true}, "T": {"type": "DT_INT32"}}}, {"name": "StatefulPartitionedCall/sequential_2/bidirectional_2/backward_lstm_2/PartitionedCall/while/exit/_134", "op": "Exit", "input": ["StatefulPartitionedCall/sequential_2/bidirectional_2/backward_lstm_2/PartitionedCall/while/StatefulPartitionedCall/sequential_2/bidirectional_2/backward_lstm_2/PartitionedCall/TensorArrayV2_1_switch/_122"], "attr": {"T": {"type": "DT_VARIANT"}}}, {"name": "StatefulPartitionedCall/sequential_2/bidirectional_2/forward_lstm_2/PartitionedCall/while/body/_35/while/TensorArrayV2Write/TensorListSetItem/index", "op": "Const", "input": ["^StatefulPartitionedCall/sequential_2/bidirectional_2/forward_lstm_2/PartitionedCall/while/loop_body_control/_70"], "attr": {"value": {"tensor": {"dtype": "DT_INT32", "tensorShape": {}}}, "dtype": {"type": "DT_INT32"}}}, {"name": "StatefulPartitionedCall/sequential_2/bidirectional_2/forward_lstm_2/PartitionedCall/while/body/_35/while/split/split_dim", "op": "Const", "input": ["^StatefulPartitionedCall/sequential_2/bidirectional_2/forward_lstm_2/PartitionedCall/while/loop_body_control/_70"], "attr": {"value": {"tensor": {"dtype": "DT_INT32", "tensorShape": {}}}, "dtype": {"type": "DT_INT32"}}}, {"name": "StatefulPartitionedCall/sequential_2/bidirectional_2/forward_lstm_2/PartitionedCall/while/next_iteration/_90", "op": "NextIteration", "input": ["StatefulPartitionedCall/sequential_2/bidirectional_2/forward_lstm_2/PartitionedCall/while/StatefulPartitionedCall/sequential_2/bidirectional_2/forward_lstm_2/PartitionedCall/TensorArrayUnstack/TensorListFromTensor_switch/_66:1", "^StatefulPartitionedCall/sequential_2/bidirectional_2/forward_lstm_2/PartitionedCall/while/loop_body_control/_70"], "attr": {"T": {"type": "DT_VARIANT"}}}, {"name": "StatefulPartitionedCall/sequential_2/bidirectional_2/forward_lstm_2/PartitionedCall/while/body/_35/while/TensorArrayV2Read/TensorListGetItem/element_shape", "op": "Const", "input": ["^StatefulPartitionedCall/sequential_2/bidirectional_2/forward_lstm_2/PartitionedCall/while/loop_body_control/_70"], "attr": {"value": {"tensor": {"dtype": "DT_INT32", "tensorShape": {"dim": [{"size": "2"}]}}}, "dtype": {"type": "DT_INT32"}}}, {"name": "StatefulPartitionedCall/sequential_2/bidirectional_2/forward_lstm_2/PartitionedCall/while/next_iteration/_91", "op": "NextIteration", "input": ["StatefulPartitionedCall/sequential_2/bidirectional_2/forward_lstm_2/PartitionedCall/while/Func/StatefulPartitionedCall/sequential_2/bidirectional_2/forward_lstm_2/PartitionedCall/input/_15_switch/_67:1", "^StatefulPartitionedCall/sequential_2/bidirectional_2/forward_lstm_2/PartitionedCall/while/loop_body_control/_70"], "attr": {"T": {"type": "DT_FLOAT"}}}, {"name": "StatefulPartitionedCall/sequential_2/bidirectional_2/forward_lstm_2/PartitionedCall/while/next_iteration/_92", "op": "NextIteration", "input": ["StatefulPartitionedCall/sequential_2/bidirectional_2/forward_lstm_2/PartitionedCall/while/Func/StatefulPartitionedCall/sequential_2/bidirectional_2/forward_lstm_2/PartitionedCall/input/_16_switch/_68:1", "^StatefulPartitionedCall/sequential_2/bidirectional_2/forward_lstm_2/PartitionedCall/while/loop_body_control/_70"], "attr": {"T": {"type": "DT_FLOAT"}}}, {"name": "StatefulPartitionedCall/sequential_2/bidirectional_2/forward_lstm_2/PartitionedCall/while/body/_35/while/MatMul_1", "op": "MatMul", "input": ["StatefulPartitionedCall/sequential_2/bidirectional_2/forward_lstm_2/PartitionedCall/while/Func/StatefulPartitionedCall/sequential_2/bidirectional_2/forward_lstm_2/PartitionedCall/input/_13_switch/_63:1", "StatefulPartitionedCall/sequential_2/bidirectional_2/forward_lstm_2/PartitionedCall/while/Func/StatefulPartitionedCall/sequential_2/bidirectional_2/forward_lstm_2/PartitionedCall/input/_16_switch/_68:1", "^StatefulPartitionedCall/sequential_2/bidirectional_2/forward_lstm_2/PartitionedCall/while/loop_body_control/_70"], "device": "/device:CPU:0", "attr": {"transpose_a": {"b": false}, "_input_shapes": {"list": {"shape": [{"dim": [{"size": "-17"}, {"size": "150"}]}, {"dim": [{"size": "150"}, {"size": "600"}]}]}}, "T": {"type": "DT_FLOAT"}, "transpose_b": {"b": false}}}, {"name": "StatefulPartitionedCall/sequential_2/bidirectional_2/forward_lstm_2/PartitionedCall/while/next_iteration/_93", "op": "NextIteration", "input": ["StatefulPartitionedCall/sequential_2/bidirectional_2/forward_lstm_2/PartitionedCall/while/Func/StatefulPartitionedCall/sequential_2/bidirectional_2/forward_lstm_2/PartitionedCall/input/_17_switch/_69:1", "^StatefulPartitionedCall/sequential_2/bidirectional_2/forward_lstm_2/PartitionedCall/while/loop_body_control/_70"], "attr": {"T": {"type": "DT_FLOAT"}}}, {"name": "StatefulPartitionedCall/sequential_2/bidirectional_2/forward_lstm_2/PartitionedCall/while/body/_35/while/add_2/y", "op": "Const", "input": ["^StatefulPartitionedCall/sequential_2/bidirectional_2/forward_lstm_2/PartitionedCall/while/loop_body_control/_70"], "attr": {"value": {"tensor": {"dtype": "DT_INT32", "tensorShape": {}}}, "dtype": {"type": "DT_INT32"}}}, {"name": "StatefulPartitionedCall/sequential_2/bidirectional_2/forward_lstm_2/PartitionedCall/while/body/_35/while/add_3/y", "op": "Const", "input": ["^StatefulPartitionedCall/sequential_2/bidirectional_2/forward_lstm_2/PartitionedCall/while/loop_body_control/_70"], "attr": {"value": {"tensor": {"dtype": "DT_INT32", "tensorShape": {}}}, "dtype": {"type": "DT_INT32"}}}, {"name": "StatefulPartitionedCall/sequential_2/bidirectional_2/forward_lstm_2/PartitionedCall/while/next_iteration/_89", "op": "NextIteration", "input": ["StatefulPartitionedCall/sequential_2/bidirectional_2/forward_lstm_2/PartitionedCall/while/StatefulPartitionedCall/sequential_2/bidirectional_2/forward_lstm_2/PartitionedCall/strided_slice_switch/_65:1", "^StatefulPartitionedCall/sequential_2/bidirectional_2/forward_lstm_2/PartitionedCall/while/loop_body_control/_70"], "attr": {"T": {"type": "DT_INT32"}}}, {"name": "StatefulPartitionedCall/sequential_2/bidirectional_2/forward_lstm_2/PartitionedCall/TensorArrayV2Stack/TensorListStack", "op": "TensorListStack", "input": ["StatefulPartitionedCall/sequential_2/bidirectional_2/forward_lstm_2/PartitionedCall/while/exit/_74", "StatefulPartitionedCall/sequential_2/bidirectional_2/forward_lstm_2/PartitionedCall/TensorArrayV2Stack/TensorListStack/element_shape"], "attr": {"num_elements": {"i": "1"}, "element_dtype": {"type": "DT_FLOAT"}}}, {"name": "StatefulPartitionedCall/sequential_2/bidirectional_2/backward_lstm_2/PartitionedCall/while/body/_95/while/TensorArrayV2Write/TensorListSetItem/index", "op": "Const", "input": ["^StatefulPartitionedCall/sequential_2/bidirectional_2/backward_lstm_2/PartitionedCall/while/loop_body_control/_130"], "attr": {"value": {"tensor": {"dtype": "DT_INT32", "tensorShape": {}}}, "dtype": {"type": "DT_INT32"}}}, {"name": "StatefulPartitionedCall/sequential_2/bidirectional_2/backward_lstm_2/PartitionedCall/while/body/_95/while/split/split_dim", "op": "Const", "input": ["^StatefulPartitionedCall/sequential_2/bidirectional_2/backward_lstm_2/PartitionedCall/while/loop_body_control/_130"], "attr": {"value": {"tensor": {"dtype": "DT_INT32", "tensorShape": {}}}, "dtype": {"type": "DT_INT32"}}}, {"name": "StatefulPartitionedCall/sequential_2/bidirectional_2/backward_lstm_2/PartitionedCall/while/next_iteration/_150", "op": "NextIteration", "input": ["StatefulPartitionedCall/sequential_2/bidirectional_2/backward_lstm_2/PartitionedCall/while/StatefulPartitionedCall/sequential_2/bidirectional_2/backward_lstm_2/PartitionedCall/TensorArrayUnstack/TensorListFromTensor_switch/_126:1", "^StatefulPartitionedCall/sequential_2/bidirectional_2/backward_lstm_2/PartitionedCall/while/loop_body_control/_130"], "attr": {"T": {"type": "DT_VARIANT"}}}, {"name": "StatefulPartitionedCall/sequential_2/bidirectional_2/backward_lstm_2/PartitionedCall/while/body/_95/while/TensorArrayV2Read/TensorListGetItem/element_shape", "op": "Const", "input": ["^StatefulPartitionedCall/sequential_2/bidirectional_2/backward_lstm_2/PartitionedCall/while/loop_body_control/_130"], "attr": {"value": {"tensor": {"dtype": "DT_INT32", "tensorShape": {"dim": [{"size": "2"}]}}}, "dtype": {"type": "DT_INT32"}}}, {"name": "StatefulPartitionedCall/sequential_2/bidirectional_2/backward_lstm_2/PartitionedCall/while/next_iteration/_151", "op": "NextIteration", "input": ["StatefulPartitionedCall/sequential_2/bidirectional_2/backward_lstm_2/PartitionedCall/while/Func/StatefulPartitionedCall/sequential_2/bidirectional_2/backward_lstm_2/PartitionedCall/input/_26_switch/_127:1", "^StatefulPartitionedCall/sequential_2/bidirectional_2/backward_lstm_2/PartitionedCall/while/loop_body_control/_130"], "attr": {"T": {"type": "DT_FLOAT"}}}, {"name": "StatefulPartitionedCall/sequential_2/bidirectional_2/backward_lstm_2/PartitionedCall/while/next_iteration/_152", "op": "NextIteration", "input": ["StatefulPartitionedCall/sequential_2/bidirectional_2/backward_lstm_2/PartitionedCall/while/Func/StatefulPartitionedCall/sequential_2/bidirectional_2/backward_lstm_2/PartitionedCall/input/_27_switch/_128:1", "^StatefulPartitionedCall/sequential_2/bidirectional_2/backward_lstm_2/PartitionedCall/while/loop_body_control/_130"], "attr": {"T": {"type": "DT_FLOAT"}}}, {"name": "StatefulPartitionedCall/sequential_2/bidirectional_2/backward_lstm_2/PartitionedCall/while/body/_95/while/MatMul_1", "op": "MatMul", "input": ["StatefulPartitionedCall/sequential_2/bidirectional_2/backward_lstm_2/PartitionedCall/while/Func/StatefulPartitionedCall/sequential_2/bidirectional_2/backward_lstm_2/PartitionedCall/input/_24_switch/_123:1", "StatefulPartitionedCall/sequential_2/bidirectional_2/backward_lstm_2/PartitionedCall/while/Func/StatefulPartitionedCall/sequential_2/bidirectional_2/backward_lstm_2/PartitionedCall/input/_27_switch/_128:1", "^StatefulPartitionedCall/sequential_2/bidirectional_2/backward_lstm_2/PartitionedCall/while/loop_body_control/_130"], "device": "/device:CPU:0", "attr": {"transpose_a": {"b": false}, "_input_shapes": {"list": {"shape": [{"dim": [{"size": "-27"}, {"size": "150"}]}, {"dim": [{"size": "150"}, {"size": "600"}]}]}}, "T": {"type": "DT_FLOAT"}, "transpose_b": {"b": false}}}, {"name": "StatefulPartitionedCall/sequential_2/bidirectional_2/backward_lstm_2/PartitionedCall/while/next_iteration/_153", "op": "NextIteration", "input": ["StatefulPartitionedCall/sequential_2/bidirectional_2/backward_lstm_2/PartitionedCall/while/Func/StatefulPartitionedCall/sequential_2/bidirectional_2/backward_lstm_2/PartitionedCall/input/_28_switch/_129:1", "^StatefulPartitionedCall/sequential_2/bidirectional_2/backward_lstm_2/PartitionedCall/while/loop_body_control/_130"], "attr": {"T": {"type": "DT_FLOAT"}}}, {"name": "StatefulPartitionedCall/sequential_2/bidirectional_2/backward_lstm_2/PartitionedCall/while/body/_95/while/add_2/y", "op": "Const", "input": ["^StatefulPartitionedCall/sequential_2/bidirectional_2/backward_lstm_2/PartitionedCall/while/loop_body_control/_130"], "attr": {"value": {"tensor": {"dtype": "DT_INT32", "tensorShape": {}}}, "dtype": {"type": "DT_INT32"}}}, {"name": "StatefulPartitionedCall/sequential_2/bidirectional_2/backward_lstm_2/PartitionedCall/while/body/_95/while/add_3/y", "op": "Const", "input": ["^StatefulPartitionedCall/sequential_2/bidirectional_2/backward_lstm_2/PartitionedCall/while/loop_body_control/_130"], "attr": {"value": {"tensor": {"dtype": "DT_INT32", "tensorShape": {}}}, "dtype": {"type": "DT_INT32"}}}, {"name": "StatefulPartitionedCall/sequential_2/bidirectional_2/backward_lstm_2/PartitionedCall/while/next_iteration/_149", "op": "NextIteration", "input": ["StatefulPartitionedCall/sequential_2/bidirectional_2/backward_lstm_2/PartitionedCall/while/StatefulPartitionedCall/sequential_2/bidirectional_2/backward_lstm_2/PartitionedCall/strided_slice_switch/_125:1", "^StatefulPartitionedCall/sequential_2/bidirectional_2/backward_lstm_2/PartitionedCall/while/loop_body_control/_130"], "attr": {"T": {"type": "DT_INT32"}}}, {"name": "StatefulPartitionedCall/sequential_2/bidirectional_2/backward_lstm_2/PartitionedCall/TensorArrayV2Stack/TensorListStack", "op": "TensorListStack", "input": ["StatefulPartitionedCall/sequential_2/bidirectional_2/backward_lstm_2/PartitionedCall/while/exit/_134", "StatefulPartitionedCall/sequential_2/bidirectional_2/backward_lstm_2/PartitionedCall/TensorArrayV2Stack/TensorListStack/element_shape"], "attr": {"num_elements": {"i": "1"}, "element_dtype": {"type": "DT_FLOAT"}}}, {"name": "StatefulPartitionedCall/sequential_2/bidirectional_2/forward_lstm_2/PartitionedCall/while/body/_35/while/TensorArrayV2Read/TensorListGetItem", "op": "TensorListGetItem", "input": ["StatefulPartitionedCall/sequential_2/bidirectional_2/forward_lstm_2/PartitionedCall/while/StatefulPartitionedCall/sequential_2/bidirectional_2/forward_lstm_2/PartitionedCall/TensorArrayUnstack/TensorListFromTensor_switch/_66:1", "StatefulPartitionedCall/sequential_2/bidirectional_2/forward_lstm_2/PartitionedCall/while/StatefulPartitionedCall/sequential_2/bidirectional_2/forward_lstm_2/PartitionedCall/time_switch/_61:1", "StatefulPartitionedCall/sequential_2/bidirectional_2/forward_lstm_2/PartitionedCall/while/body/_35/while/TensorArrayV2Read/TensorListGetItem/element_shape"], "attr": {"element_dtype": {"type": "DT_FLOAT"}}}, {"name": "StatefulPartitionedCall/sequential_2/bidirectional_2/forward_lstm_2/PartitionedCall/while/body/_35/while/add_2", "op": "AddV2", "input": ["StatefulPartitionedCall/sequential_2/bidirectional_2/forward_lstm_2/PartitionedCall/while/StatefulPartitionedCall/sequential_2/bidirectional_2/forward_lstm_2/PartitionedCall/time_switch/_61:1", "StatefulPartitionedCall/sequential_2/bidirectional_2/forward_lstm_2/PartitionedCall/while/body/_35/while/add_2/y"], "attr": {"T": {"type": "DT_INT32"}}}, {"name": "StatefulPartitionedCall/sequential_2/bidirectional_2/forward_lstm_2/PartitionedCall/while/body/_35/while/add_3", "op": "AddV2", "input": ["StatefulPartitionedCall/sequential_2/bidirectional_2/forward_lstm_2/PartitionedCall/while/StatefulPartitionedCall/sequential_2/bidirectional_2/forward_lstm_2/PartitionedCall/while/loop_counter_switch/_59:1", "StatefulPartitionedCall/sequential_2/bidirectional_2/forward_lstm_2/PartitionedCall/while/body/_35/while/add_3/y"], "attr": {"T": {"type": "DT_INT32"}}}, {"name": "StatefulPartitionedCall/sequential_2/bidirectional_2/forward_lstm_2/PartitionedCall/strided_slice_2", "op": "StridedSlice", "input": ["StatefulPartitionedCall/sequential_2/bidirectional_2/forward_lstm_2/PartitionedCall/TensorArrayV2Stack/TensorListStack", "StatefulPartitionedCall/sequential_2/bidirectional_2/forward_lstm_2/PartitionedCall/strided_slice_2/stack", "StatefulPartitionedCall/sequential_2/bidirectional_2/forward_lstm_2/PartitionedCall/strided_slice_2/stack_1", "StatefulPartitionedCall/sequential_2/bidirectional_2/forward_lstm_2/PartitionedCall/strided_slice_2/stack_2"], "attr": {"shrink_axis_mask": {"i": "1"}, "new_axis_mask": {"i": "0"}, "Index": {"type": "DT_INT32"}, "begin_mask": {"i": "0"}, "T": {"type": "DT_FLOAT"}, "end_mask": {"i": "0"}, "ellipsis_mask": {"i": "0"}}}, {"name": "StatefulPartitionedCall/sequential_2/bidirectional_2/backward_lstm_2/PartitionedCall/while/body/_95/while/TensorArrayV2Read/TensorListGetItem", "op": "TensorListGetItem", "input": ["StatefulPartitionedCall/sequential_2/bidirectional_2/backward_lstm_2/PartitionedCall/while/StatefulPartitionedCall/sequential_2/bidirectional_2/backward_lstm_2/PartitionedCall/TensorArrayUnstack/TensorListFromTensor_switch/_126:1", "StatefulPartitionedCall/sequential_2/bidirectional_2/backward_lstm_2/PartitionedCall/while/StatefulPartitionedCall/sequential_2/bidirectional_2/backward_lstm_2/PartitionedCall/time_switch/_121:1", "StatefulPartitionedCall/sequential_2/bidirectional_2/backward_lstm_2/PartitionedCall/while/body/_95/while/TensorArrayV2Read/TensorListGetItem/element_shape"], "attr": {"element_dtype": {"type": "DT_FLOAT"}}}, {"name": "StatefulPartitionedCall/sequential_2/bidirectional_2/backward_lstm_2/PartitionedCall/while/body/_95/while/add_2", "op": "AddV2", "input": ["StatefulPartitionedCall/sequential_2/bidirectional_2/backward_lstm_2/PartitionedCall/while/StatefulPartitionedCall/sequential_2/bidirectional_2/backward_lstm_2/PartitionedCall/time_switch/_121:1", "StatefulPartitionedCall/sequential_2/bidirectional_2/backward_lstm_2/PartitionedCall/while/body/_95/while/add_2/y"], "attr": {"T": {"type": "DT_INT32"}}}, {"name": "StatefulPartitionedCall/sequential_2/bidirectional_2/backward_lstm_2/PartitionedCall/while/body/_95/while/add_3", "op": "AddV2", "input": ["StatefulPartitionedCall/sequential_2/bidirectional_2/backward_lstm_2/PartitionedCall/while/StatefulPartitionedCall/sequential_2/bidirectional_2/backward_lstm_2/PartitionedCall/while/loop_counter_switch/_119:1", "StatefulPartitionedCall/sequential_2/bidirectional_2/backward_lstm_2/PartitionedCall/while/body/_95/while/add_3/y"], "attr": {"T": {"type": "DT_INT32"}}}, {"name": "StatefulPartitionedCall/sequential_2/bidirectional_2/backward_lstm_2/PartitionedCall/strided_slice_2", "op": "StridedSlice", "input": ["StatefulPartitionedCall/sequential_2/bidirectional_2/backward_lstm_2/PartitionedCall/TensorArrayV2Stack/TensorListStack", "StatefulPartitionedCall/sequential_2/bidirectional_2/backward_lstm_2/PartitionedCall/strided_slice_2/stack", "StatefulPartitionedCall/sequential_2/bidirectional_2/backward_lstm_2/PartitionedCall/strided_slice_2/stack_1", "StatefulPartitionedCall/sequential_2/bidirectional_2/backward_lstm_2/PartitionedCall/strided_slice_2/stack_2"], "attr": {"shrink_axis_mask": {"i": "1"}, "Index": {"type": "DT_INT32"}, "new_axis_mask": {"i": "0"}, "begin_mask": {"i": "0"}, "T": {"type": "DT_FLOAT"}, "end_mask": {"i": "0"}, "ellipsis_mask": {"i": "0"}}}, {"name": "StatefulPartitionedCall/sequential_2/bidirectional_2/forward_lstm_2/PartitionedCall/while/body/_35/while/add", "op": "_FusedMatMul", "input": ["StatefulPartitionedCall/sequential_2/bidirectional_2/forward_lstm_2/PartitionedCall/while/body/_35/while/TensorArrayV2Read/TensorListGetItem", "StatefulPartitionedCall/sequential_2/bidirectional_2/forward_lstm_2/PartitionedCall/while/Func/StatefulPartitionedCall/sequential_2/bidirectional_2/forward_lstm_2/PartitionedCall/input/_15_switch/_67:1", "StatefulPartitionedCall/sequential_2/bidirectional_2/forward_lstm_2/PartitionedCall/while/body/_35/while/MatMul_1"], "device": "/device:CPU:0", "attr": {"transpose_a": {"b": false}, "_input_shapes": {"list": {"shape": [{"dim": [{"size": "-17"}, {"size": "100"}]}, {"dim": [{"size": "100"}, {"size": "600"}]}]}}, "transpose_b": {"b": false}, "fused_ops": {"list": {"s": ["Qmlhc0FkZA=="]}}, "leakyrelu_alpha": {"f": 0.2}, "num_args": {"i": "1"}, "epsilon": {"f": 0.0}, "T": {"type": "DT_FLOAT"}}}, {"name": "StatefulPartitionedCall/sequential_2/bidirectional_2/forward_lstm_2/PartitionedCall/while/next_iteration/_85", "op": "NextIteration", "input": ["StatefulPartitionedCall/sequential_2/bidirectional_2/forward_lstm_2/PartitionedCall/while/body/_35/while/add_2", "^StatefulPartitionedCall/sequential_2/bidirectional_2/forward_lstm_2/PartitionedCall/while/loop_body_control/_70"], "attr": {"T": {"type": "DT_INT32"}}}, {"name": "StatefulPartitionedCall/sequential_2/bidirectional_2/forward_lstm_2/PartitionedCall/while/next_iteration/_83", "op": "NextIteration", "input": ["StatefulPartitionedCall/sequential_2/bidirectional_2/forward_lstm_2/PartitionedCall/while/body/_35/while/add_3", "^StatefulPartitionedCall/sequential_2/bidirectional_2/forward_lstm_2/PartitionedCall/while/loop_body_control/_70"], "attr": {"T": {"type": "DT_INT32"}}}, {"name": "StatefulPartitionedCall/sequential_2/bidirectional_2/backward_lstm_2/PartitionedCall/while/body/_95/while/add", "op": "_FusedMatMul", "input": ["StatefulPartitionedCall/sequential_2/bidirectional_2/backward_lstm_2/PartitionedCall/while/body/_95/while/TensorArrayV2Read/TensorListGetItem", "StatefulPartitionedCall/sequential_2/bidirectional_2/backward_lstm_2/PartitionedCall/while/Func/StatefulPartitionedCall/sequential_2/bidirectional_2/backward_lstm_2/PartitionedCall/input/_26_switch/_127:1", "StatefulPartitionedCall/sequential_2/bidirectional_2/backward_lstm_2/PartitionedCall/while/body/_95/while/MatMul_1"], "device": "/device:CPU:0", "attr": {"transpose_a": {"b": false}, "_input_shapes": {"list": {"shape": [{"dim": [{"size": "-24"}, {"size": "100"}]}, {"dim": [{"size": "100"}, {"size": "600"}]}]}}, "transpose_b": {"b": false}, "fused_ops": {"list": {"s": ["Qmlhc0FkZA=="]}}, "num_args": {"i": "1"}, "leakyrelu_alpha": {"f": 0.2}, "epsilon": {"f": 0.0}, "T": {"type": "DT_FLOAT"}}}, {"name": "StatefulPartitionedCall/sequential_2/bidirectional_2/backward_lstm_2/PartitionedCall/while/next_iteration/_145", "op": "NextIteration", "input": ["StatefulPartitionedCall/sequential_2/bidirectional_2/backward_lstm_2/PartitionedCall/while/body/_95/while/add_2", "^StatefulPartitionedCall/sequential_2/bidirectional_2/backward_lstm_2/PartitionedCall/while/loop_body_control/_130"], "attr": {"T": {"type": "DT_INT32"}}}, {"name": "StatefulPartitionedCall/sequential_2/bidirectional_2/backward_lstm_2/PartitionedCall/while/next_iteration/_143", "op": "NextIteration", "input": ["StatefulPartitionedCall/sequential_2/bidirectional_2/backward_lstm_2/PartitionedCall/while/body/_95/while/add_3", "^StatefulPartitionedCall/sequential_2/bidirectional_2/backward_lstm_2/PartitionedCall/while/loop_body_control/_130"], "attr": {"T": {"type": "DT_INT32"}}}, {"name": "StatefulPartitionedCall/sequential_2/bidirectional_2/concat", "op": "ConcatV2", "input": ["StatefulPartitionedCall/sequential_2/bidirectional_2/forward_lstm_2/PartitionedCall/strided_slice_2", "StatefulPartitionedCall/sequential_2/bidirectional_2/backward_lstm_2/PartitionedCall/strided_slice_2", "StatefulPartitionedCall/sequential_2/bidirectional_2/concat/axis"], "attr": {"N": {"i": "2"}, "Tidx": {"type": "DT_INT32"}, "T": {"type": "DT_FLOAT"}}}, {"name": "StatefulPartitionedCall/sequential_2/bidirectional_2/forward_lstm_2/PartitionedCall/while/body/_35/while/BiasAdd", "op": "BiasAdd", "input": ["StatefulPartitionedCall/sequential_2/bidirectional_2/forward_lstm_2/PartitionedCall/while/body/_35/while/add", "StatefulPartitionedCall/sequential_2/bidirectional_2/forward_lstm_2/PartitionedCall/while/Func/StatefulPartitionedCall/sequential_2/bidirectional_2/forward_lstm_2/PartitionedCall/input/_17_switch/_69:1"], "attr": {"data_format": {"s": "TkhXQw=="}, "T": {"type": "DT_FLOAT"}, "_input_shapes": {"list": {"shape": [{"dim": [{"size": "-18"}, {"size": "600"}]}, {"dim": [{"size": "600"}]}]}}}}, {"name": "StatefulPartitionedCall/sequential_2/bidirectional_2/backward_lstm_2/PartitionedCall/while/body/_95/while/BiasAdd", "op": "BiasAdd", "input": ["StatefulPartitionedCall/sequential_2/bidirectional_2/backward_lstm_2/PartitionedCall/while/body/_95/while/add", "StatefulPartitionedCall/sequential_2/bidirectional_2/backward_lstm_2/PartitionedCall/while/Func/StatefulPartitionedCall/sequential_2/bidirectional_2/backward_lstm_2/PartitionedCall/input/_28_switch/_129:1"], "attr": {"data_format": {"s": "TkhXQw=="}, "T": {"type": "DT_FLOAT"}, "_input_shapes": {"list": {"shape": [{"dim": [{"size": "-29"}, {"size": "600"}]}, {"dim": [{"size": "600"}]}]}}}}, {"name": "StatefulPartitionedCall/sequential_2/dense_2/BiasAdd", "op": "_FusedMatMul", "input": ["StatefulPartitionedCall/sequential_2/bidirectional_2/concat", "StatefulPartitionedCall/sequential_2/dense_2/MatMul/ReadVariableOp", "StatefulPartitionedCall/sequential_2/dense_2/BiasAdd/ReadVariableOp"], "device": "/device:CPU:0", "attr": {"transpose_a": {"b": false}, "_input_shapes": {"list": {"shape": [{"dim": [{"size": "-10"}, {"size": "300"}]}, {"dim": [{"size": "300"}, {"size": "1691"}]}]}}, "transpose_b": {"b": false}, "fused_ops": {"list": {"s": ["Qmlhc0FkZA=="]}}, "leakyrelu_alpha": {"f": 0.2}, "num_args": {"i": "1"}, "epsilon": {"f": 0.0}, "T": {"type": "DT_FLOAT"}}}, {"name": "StatefulPartitionedCall/sequential_2/bidirectional_2/forward_lstm_2/PartitionedCall/while/body/_35/while/split", "op": "Split", "input": ["StatefulPartitionedCall/sequential_2/bidirectional_2/forward_lstm_2/PartitionedCall/while/body/_35/while/split/split_dim", "StatefulPartitionedCall/sequential_2/bidirectional_2/forward_lstm_2/PartitionedCall/while/body/_35/while/BiasAdd"], "attr": {"num_split": {"i": "4"}, "T": {"type": "DT_FLOAT"}}}, {"name": "StatefulPartitionedCall/sequential_2/bidirectional_2/backward_lstm_2/PartitionedCall/while/body/_95/while/split", "op": "Split", "input": ["StatefulPartitionedCall/sequential_2/bidirectional_2/backward_lstm_2/PartitionedCall/while/body/_95/while/split/split_dim", "StatefulPartitionedCall/sequential_2/bidirectional_2/backward_lstm_2/PartitionedCall/while/body/_95/while/BiasAdd"], "attr": {"num_split": {"i": "4"}, "T": {"type": "DT_FLOAT"}}}, {"name": "StatefulPartitionedCall/sequential_2/dense_2/Softmax", "op": "Softmax", "input": ["StatefulPartitionedCall/sequential_2/dense_2/BiasAdd"], "attr": {"T": {"type": "DT_FLOAT"}}}, {"name": "StatefulPartitionedCall/sequential_2/bidirectional_2/forward_lstm_2/PartitionedCall/while/body/_35/while/Sigmoid", "op": "Sigmoid", "input": ["StatefulPartitionedCall/sequential_2/bidirectional_2/forward_lstm_2/PartitionedCall/while/body/_35/while/split"], "attr": {"_input_shapes": {"list": {"shape": [{"dim": [{"size": "-18"}, {"size": "150"}]}]}}, "T": {"type": "DT_FLOAT"}}}, {"name": "StatefulPartitionedCall/sequential_2/bidirectional_2/forward_lstm_2/PartitionedCall/while/body/_35/while/Sigmoid_1", "op": "Sigmoid", "input": ["StatefulPartitionedCall/sequential_2/bidirectional_2/forward_lstm_2/PartitionedCall/while/body/_35/while/split:1"], "attr": {"_input_shapes": {"list": {"shape": [{"dim": [{"size": "-18"}, {"size": "150"}]}]}}, "T": {"type": "DT_FLOAT"}}}, {"name": "StatefulPartitionedCall/sequential_2/bidirectional_2/forward_lstm_2/PartitionedCall/while/body/_35/while/Tanh", "op": "Tanh", "input": ["StatefulPartitionedCall/sequential_2/bidirectional_2/forward_lstm_2/PartitionedCall/while/body/_35/while/split:2"], "attr": {"T": {"type": "DT_FLOAT"}}}, {"name": "StatefulPartitionedCall/sequential_2/bidirectional_2/forward_lstm_2/PartitionedCall/while/body/_35/while/Sigmoid_2", "op": "Sigmoid", "input": ["StatefulPartitionedCall/sequential_2/bidirectional_2/forward_lstm_2/PartitionedCall/while/body/_35/while/split:3"], "attr": {"_input_shapes": {"list": {"shape": [{"dim": [{"size": "-18"}, {"size": "150"}]}]}}, "T": {"type": "DT_FLOAT"}}}, {"name": "StatefulPartitionedCall/sequential_2/bidirectional_2/backward_lstm_2/PartitionedCall/while/body/_95/while/Sigmoid", "op": "Sigmoid", "input": ["StatefulPartitionedCall/sequential_2/bidirectional_2/backward_lstm_2/PartitionedCall/while/body/_95/while/split"], "attr": {"_input_shapes": {"list": {"shape": [{"unknownRank": true}]}}, "T": {"type": "DT_FLOAT"}}}, {"name": "StatefulPartitionedCall/sequential_2/bidirectional_2/backward_lstm_2/PartitionedCall/while/body/_95/while/Sigmoid_1", "op": "Sigmoid", "input": ["StatefulPartitionedCall/sequential_2/bidirectional_2/backward_lstm_2/PartitionedCall/while/body/_95/while/split:1"], "attr": {"_input_shapes": {"list": {"shape": [{"unknownRank": true}]}}, "T": {"type": "DT_FLOAT"}}}, {"name": "StatefulPartitionedCall/sequential_2/bidirectional_2/backward_lstm_2/PartitionedCall/while/body/_95/while/Tanh", "op": "Tanh", "input": ["StatefulPartitionedCall/sequential_2/bidirectional_2/backward_lstm_2/PartitionedCall/while/body/_95/while/split:2"], "attr": {"T": {"type": "DT_FLOAT"}}}, {"name": "StatefulPartitionedCall/sequential_2/bidirectional_2/backward_lstm_2/PartitionedCall/while/body/_95/while/Sigmoid_2", "op": "Sigmoid", "input": ["StatefulPartitionedCall/sequential_2/bidirectional_2/backward_lstm_2/PartitionedCall/while/body/_95/while/split:3"], "attr": {"_input_shapes": {"list": {"shape": [{"unknownRank": true}]}}, "T": {"type": "DT_FLOAT"}}}, {"name": "Identity", "op": "Identity", "input": ["StatefulPartitionedCall/sequential_2/dense_2/Softmax", "^StatefulPartitionedCall/sequential_2/embedding_2/embedding_lookup"], "attr": {"T": {"type": "DT_FLOAT"}}}, {"name": "StatefulPartitionedCall/sequential_2/bidirectional_2/forward_lstm_2/PartitionedCall/while/body/_35/while/mul", "op": "Mul", "input": ["StatefulPartitionedCall/sequential_2/bidirectional_2/forward_lstm_2/PartitionedCall/while/body/_35/while/Sigmoid_1", "StatefulPartitionedCall/sequential_2/bidirectional_2/forward_lstm_2/PartitionedCall/while/Func/StatefulPartitionedCall/sequential_2/bidirectional_2/forward_lstm_2/PartitionedCall/input/_14_switch/_64:1"], "attr": {"T": {"type": "DT_FLOAT"}}}, {"name": "StatefulPartitionedCall/sequential_2/bidirectional_2/forward_lstm_2/PartitionedCall/while/body/_35/while/mul_1", "op": "Mul", "input": ["StatefulPartitionedCall/sequential_2/bidirectional_2/forward_lstm_2/PartitionedCall/while/body/_35/while/Sigmoid", "StatefulPartitionedCall/sequential_2/bidirectional_2/forward_lstm_2/PartitionedCall/while/body/_35/while/Tanh"], "attr": {"T": {"type": "DT_FLOAT"}}}, {"name": "StatefulPartitionedCall/sequential_2/bidirectional_2/backward_lstm_2/PartitionedCall/while/body/_95/while/mul", "op": "Mul", "input": ["StatefulPartitionedCall/sequential_2/bidirectional_2/backward_lstm_2/PartitionedCall/while/body/_95/while/Sigmoid_1", "StatefulPartitionedCall/sequential_2/bidirectional_2/backward_lstm_2/PartitionedCall/while/Func/StatefulPartitionedCall/sequential_2/bidirectional_2/backward_lstm_2/PartitionedCall/input/_25_switch/_124:1"], "attr": {"T": {"type": "DT_FLOAT"}}}, {"name": "StatefulPartitionedCall/sequential_2/bidirectional_2/backward_lstm_2/PartitionedCall/while/body/_95/while/mul_1", "op": "Mul", "input": ["StatefulPartitionedCall/sequential_2/bidirectional_2/backward_lstm_2/PartitionedCall/while/body/_95/while/Sigmoid", "StatefulPartitionedCall/sequential_2/bidirectional_2/backward_lstm_2/PartitionedCall/while/body/_95/while/Tanh"], "attr": {"T": {"type": "DT_FLOAT"}}}, {"name": "StatefulPartitionedCall/sequential_2/bidirectional_2/forward_lstm_2/PartitionedCall/while/body/_35/while/add_1", "op": "AddV2", "input": ["StatefulPartitionedCall/sequential_2/bidirectional_2/forward_lstm_2/PartitionedCall/while/body/_35/while/mul", "StatefulPartitionedCall/sequential_2/bidirectional_2/forward_lstm_2/PartitionedCall/while/body/_35/while/mul_1"], "attr": {"T": {"type": "DT_FLOAT"}}}, {"name": "StatefulPartitionedCall/sequential_2/bidirectional_2/backward_lstm_2/PartitionedCall/while/body/_95/while/add_1", "op": "AddV2", "input": ["StatefulPartitionedCall/sequential_2/bidirectional_2/backward_lstm_2/PartitionedCall/while/body/_95/while/mul", "StatefulPartitionedCall/sequential_2/bidirectional_2/backward_lstm_2/PartitionedCall/while/body/_95/while/mul_1"], "attr": {"T": {"type": "DT_FLOAT"}}}, {"name": "StatefulPartitionedCall/sequential_2/bidirectional_2/forward_lstm_2/PartitionedCall/while/body/_35/while/Tanh_1", "op": "Tanh", "input": ["StatefulPartitionedCall/sequential_2/bidirectional_2/forward_lstm_2/PartitionedCall/while/body/_35/while/add_1"], "attr": {"T": {"type": "DT_FLOAT"}}}, {"name": "StatefulPartitionedCall/sequential_2/bidirectional_2/forward_lstm_2/PartitionedCall/while/next_iteration/_88", "op": "NextIteration", "input": ["StatefulPartitionedCall/sequential_2/bidirectional_2/forward_lstm_2/PartitionedCall/while/body/_35/while/add_1", "^StatefulPartitionedCall/sequential_2/bidirectional_2/forward_lstm_2/PartitionedCall/while/loop_body_control/_70"], "attr": {"T": {"type": "DT_FLOAT"}}}, {"name": "StatefulPartitionedCall/sequential_2/bidirectional_2/backward_lstm_2/PartitionedCall/while/body/_95/while/Tanh_1", "op": "Tanh", "input": ["StatefulPartitionedCall/sequential_2/bidirectional_2/backward_lstm_2/PartitionedCall/while/body/_95/while/add_1"], "attr": {"T": {"type": "DT_FLOAT"}}}, {"name": "StatefulPartitionedCall/sequential_2/bidirectional_2/backward_lstm_2/PartitionedCall/while/next_iteration/_148", "op": "NextIteration", "input": ["StatefulPartitionedCall/sequential_2/bidirectional_2/backward_lstm_2/PartitionedCall/while/body/_95/while/add_1", "^StatefulPartitionedCall/sequential_2/bidirectional_2/backward_lstm_2/PartitionedCall/while/loop_body_control/_130"], "attr": {"T": {"type": "DT_FLOAT"}}}, {"name": "StatefulPartitionedCall/sequential_2/bidirectional_2/forward_lstm_2/PartitionedCall/while/body/_35/while/mul_2", "op": "Mul", "input": ["StatefulPartitionedCall/sequential_2/bidirectional_2/forward_lstm_2/PartitionedCall/while/body/_35/while/Sigmoid_2", "StatefulPartitionedCall/sequential_2/bidirectional_2/forward_lstm_2/PartitionedCall/while/body/_35/while/Tanh_1"], "attr": {"T": {"type": "DT_FLOAT"}}}, {"name": "StatefulPartitionedCall/sequential_2/bidirectional_2/backward_lstm_2/PartitionedCall/while/body/_95/while/mul_2", "op": "Mul", "input": ["StatefulPartitionedCall/sequential_2/bidirectional_2/backward_lstm_2/PartitionedCall/while/body/_95/while/Sigmoid_2", "StatefulPartitionedCall/sequential_2/bidirectional_2/backward_lstm_2/PartitionedCall/while/body/_95/while/Tanh_1"], "attr": {"T": {"type": "DT_FLOAT"}}}, {"name": "StatefulPartitionedCall/sequential_2/bidirectional_2/forward_lstm_2/PartitionedCall/while/next_iteration/_87", "op": "NextIteration", "input": ["StatefulPartitionedCall/sequential_2/bidirectional_2/forward_lstm_2/PartitionedCall/while/body/_35/while/mul_2", "^StatefulPartitionedCall/sequential_2/bidirectional_2/forward_lstm_2/PartitionedCall/while/loop_body_control/_70"], "attr": {"T": {"type": "DT_FLOAT"}}}, {"name": "StatefulPartitionedCall/sequential_2/bidirectional_2/forward_lstm_2/PartitionedCall/while/body/_35/while/TensorArrayV2Write/TensorListSetItem", "op": "TensorListSetItem", "input": ["StatefulPartitionedCall/sequential_2/bidirectional_2/forward_lstm_2/PartitionedCall/while/StatefulPartitionedCall/sequential_2/bidirectional_2/forward_lstm_2/PartitionedCall/TensorArrayV2_1_switch/_62:1", "StatefulPartitionedCall/sequential_2/bidirectional_2/forward_lstm_2/PartitionedCall/while/body/_35/while/TensorArrayV2Write/TensorListSetItem/index", "StatefulPartitionedCall/sequential_2/bidirectional_2/forward_lstm_2/PartitionedCall/while/body/_35/while/mul_2"], "attr": {"element_dtype": {"type": "DT_FLOAT"}, "resize_if_index_out_of_bounds": {"b": false}}, "experimentalType": {"typeId": "TFT_PRODUCT", "args": [{"typeId": "TFT_ARRAY", "args": [{"typeId": "TFT_TENSOR", "args": [{"typeId": "TFT_FLOAT"}]}]}]}}, {"name": "StatefulPartitionedCall/sequential_2/bidirectional_2/backward_lstm_2/PartitionedCall/while/next_iteration/_147", "op": "NextIteration", "input": ["StatefulPartitionedCall/sequential_2/bidirectional_2/backward_lstm_2/PartitionedCall/while/body/_95/while/mul_2", "^StatefulPartitionedCall/sequential_2/bidirectional_2/backward_lstm_2/PartitionedCall/while/loop_body_control/_130"], "attr": {"T": {"type": "DT_FLOAT"}}}, {"name": "StatefulPartitionedCall/sequential_2/bidirectional_2/backward_lstm_2/PartitionedCall/while/body/_95/while/TensorArrayV2Write/TensorListSetItem", "op": "TensorListSetItem", "input": ["StatefulPartitionedCall/sequential_2/bidirectional_2/backward_lstm_2/PartitionedCall/while/StatefulPartitionedCall/sequential_2/bidirectional_2/backward_lstm_2/PartitionedCall/TensorArrayV2_1_switch/_122:1", "StatefulPartitionedCall/sequential_2/bidirectional_2/backward_lstm_2/PartitionedCall/while/body/_95/while/TensorArrayV2Write/TensorListSetItem/index", "StatefulPartitionedCall/sequential_2/bidirectional_2/backward_lstm_2/PartitionedCall/while/body/_95/while/mul_2"], "attr": {"element_dtype": {"type": "DT_FLOAT"}, "resize_if_index_out_of_bounds": {"b": false}}, "experimentalType": {"typeId": "TFT_PRODUCT", "args": [{"typeId": "TFT_ARRAY", "args": [{"typeId": "TFT_TENSOR", "args": [{"typeId": "TFT_FLOAT"}]}]}]}}, {"name": "StatefulPartitionedCall/sequential_2/bidirectional_2/forward_lstm_2/PartitionedCall/while/next_iteration/_86", "op": "NextIteration", "input": ["StatefulPartitionedCall/sequential_2/bidirectional_2/forward_lstm_2/PartitionedCall/while/body/_35/while/TensorArrayV2Write/TensorListSetItem", "^StatefulPartitionedCall/sequential_2/bidirectional_2/forward_lstm_2/PartitionedCall/while/loop_body_control/_70"], "attr": {"T": {"type": "DT_VARIANT"}}}, {"name": "StatefulPartitionedCall/sequential_2/bidirectional_2/backward_lstm_2/PartitionedCall/while/next_iteration/_146", "op": "NextIteration", "input": ["StatefulPartitionedCall/sequential_2/bidirectional_2/backward_lstm_2/PartitionedCall/while/body/_95/while/TensorArrayV2Write/TensorListSetItem", "^StatefulPartitionedCall/sequential_2/bidirectional_2/backward_lstm_2/PartitionedCall/while/loop_body_control/_130"], "attr": {"T": {"type": "DT_VARIANT"}}}], "library": {}, "versions": {"producer": 1645}}, "weightsManifest": [{"paths": ["group1-shard1of1.bin"], "weights": [{"name": "StatefulPartitionedCall/sequential_2/bidirectional_2/forward_lstm_2/PartitionedCall/TensorArrayV2_1/element_shape", "shape": [2], "dtype": "int32"}, {"name": "StatefulPartitionedCall/sequential_2/bidirectional_2/forward_lstm_2/PartitionedCall/TensorArrayV2_1/num_elements", "shape": [], "dtype": "int32"}, {"name": "StatefulPartitionedCall/sequential_2/bidirectional_2/forward_lstm_2/zeros_1/packed/1", "shape": [], "dtype": "int32"}, {"name": "StatefulPartitionedCall/sequential_2/bidirectional_2/forward_lstm_2/zeros_1/Const", "shape": [], "dtype": "float32"}, {"name": "StatefulPartitionedCall/sequential_2/bidirectional_2/forward_lstm_2/PartitionedCall/TensorArrayUnstack/TensorListFromTensor/element_shape", "shape": [2], "dtype": "int32"}, {"name": "StatefulPartitionedCall/sequential_2/bidirectional_2/forward_lstm_2/Read/ReadVariableOp", "shape": [100, 600], "dtype": "float32"}, {"name": "StatefulPartitionedCall/sequential_2/bidirectional_2/forward_lstm_2/strided_slice/stack", "shape": [1], "dtype": "int32"}, {"name": "StatefulPartitionedCall/sequential_2/bidirectional_2/forward_lstm_2/strided_slice/stack_1", "shape": [1], "dtype": "int32"}, {"name": "StatefulPartitionedCall/sequential_2/bidirectional_2/forward_lstm_2/strided_slice/stack_2", "shape": [1], "dtype": "int32"}, {"name": "StatefulPartitionedCall/sequential_2/bidirectional_2/forward_lstm_2/zeros/packed/1", "shape": [], "dtype": "int32"}, {"name": "StatefulPartitionedCall/sequential_2/bidirectional_2/forward_lstm_2/zeros/Const", "shape": [], "dtype": "float32"}, {"name": "StatefulPartitionedCall/sequential_2/bidirectional_2/forward_lstm_2/Read_1/ReadVariableOp", "shape": [150, 600], "dtype": "float32"}, {"name": "StatefulPartitionedCall/sequential_2/bidirectional_2/forward_lstm_2/Read_2/ReadVariableOp", "shape": [600], "dtype": "float32"}, {"name": "StatefulPartitionedCall/sequential_2/bidirectional_2/forward_lstm_2/PartitionedCall/time", "shape": [], "dtype": "int32"}, {"name": "StatefulPartitionedCall/sequential_2/bidirectional_2/forward_lstm_2/PartitionedCall/transpose/perm", "shape": [3], "dtype": "int32"}, {"name": "StatefulPartitionedCall/sequential_2/bidirectional_2/forward_lstm_2/PartitionedCall/strided_slice/stack", "shape": [1], "dtype": "int32"}, {"name": "StatefulPartitionedCall/sequential_2/bidirectional_2/forward_lstm_2/PartitionedCall/strided_slice/stack_1", "shape": [1], "dtype": "int32"}, {"name": "StatefulPartitionedCall/sequential_2/bidirectional_2/forward_lstm_2/PartitionedCall/strided_slice/stack_2", "shape": [1], "dtype": "int32"}, {"name": "StatefulPartitionedCall/sequential_2/bidirectional_2/forward_lstm_2/PartitionedCall/while/loop_counter", "shape": [], "dtype": "int32"}, {"name": "StatefulPartitionedCall/sequential_2/bidirectional_2/forward_lstm_2/PartitionedCall/TensorArrayV2Stack/TensorListStack/element_shape", "shape": [2], "dtype": "int32"}, {"name": "StatefulPartitionedCall/sequential_2/bidirectional_2/forward_lstm_2/PartitionedCall/strided_slice_2/stack", "shape": [1], "dtype": "int32"}, {"name": "StatefulPartitionedCall/sequential_2/bidirectional_2/forward_lstm_2/PartitionedCall/strided_slice_2/stack_1", "shape": [1], "dtype": "int32"}, {"name": "StatefulPartitionedCall/sequential_2/bidirectional_2/forward_lstm_2/PartitionedCall/strided_slice_2/stack_2", "shape": [1], "dtype": "int32"}, {"name": "StatefulPartitionedCall/sequential_2/bidirectional_2/backward_lstm_2/PartitionedCall/TensorArrayV2_1/element_shape", "shape": [2], "dtype": "int32"}, {"name": "StatefulPartitionedCall/sequential_2/bidirectional_2/backward_lstm_2/PartitionedCall/TensorArrayV2_1/num_elements", "shape": [], "dtype": "int32"}, {"name": "StatefulPartitionedCall/sequential_2/bidirectional_2/backward_lstm_2/zeros_1/packed/1", "shape": [], "dtype": "int32"}, {"name": "StatefulPartitionedCall/sequential_2/bidirectional_2/backward_lstm_2/zeros_1/Const", "shape": [], "dtype": "float32"}, {"name": "StatefulPartitionedCall/sequential_2/bidirectional_2/backward_lstm_2/PartitionedCall/ReverseV2/axis", "shape": [1], "dtype": "int32"}, {"name": "StatefulPartitionedCall/sequential_2/bidirectional_2/backward_lstm_2/PartitionedCall/TensorArrayUnstack/TensorListFromTensor/element_shape", "shape": [2], "dtype": "int32"}, {"name": "StatefulPartitionedCall/sequential_2/bidirectional_2/backward_lstm_2/Read/ReadVariableOp", "shape": [100, 600], "dtype": "float32"}, {"name": "StatefulPartitionedCall/sequential_2/bidirectional_2/backward_lstm_2/strided_slice/stack", "shape": [1], "dtype": "int32"}, {"name": "StatefulPartitionedCall/sequential_2/bidirectional_2/backward_lstm_2/strided_slice/stack_1", "shape": [1], "dtype": "int32"}, {"name": "StatefulPartitionedCall/sequential_2/bidirectional_2/backward_lstm_2/strided_slice/stack_2", "shape": [1], "dtype": "int32"}, {"name": "StatefulPartitionedCall/sequential_2/bidirectional_2/backward_lstm_2/zeros/packed/1", "shape": [], "dtype": "int32"}, {"name": "StatefulPartitionedCall/sequential_2/bidirectional_2/backward_lstm_2/zeros/Const", "shape": [], "dtype": "float32"}, {"name": "StatefulPartitionedCall/sequential_2/bidirectional_2/backward_lstm_2/Read_1/ReadVariableOp", "shape": [150, 600], "dtype": "float32"}, {"name": "StatefulPartitionedCall/sequential_2/bidirectional_2/backward_lstm_2/Read_2/ReadVariableOp", "shape": [600], "dtype": "float32"}, {"name": "StatefulPartitionedCall/sequential_2/bidirectional_2/backward_lstm_2/PartitionedCall/time", "shape": [], "dtype": "int32"}, {"name": "StatefulPartitionedCall/sequential_2/bidirectional_2/backward_lstm_2/PartitionedCall/transpose/perm", "shape": [3], "dtype": "int32"}, {"name": "StatefulPartitionedCall/sequential_2/bidirectional_2/backward_lstm_2/PartitionedCall/strided_slice/stack", "shape": [1], "dtype": "int32"}, {"name": "StatefulPartitionedCall/sequential_2/bidirectional_2/backward_lstm_2/PartitionedCall/strided_slice/stack_1", "shape": [1], "dtype": "int32"}, {"name": "StatefulPartitionedCall/sequential_2/bidirectional_2/backward_lstm_2/PartitionedCall/strided_slice/stack_2", "shape": [1], "dtype": "int32"}, {"name": "StatefulPartitionedCall/sequential_2/bidirectional_2/backward_lstm_2/PartitionedCall/while/loop_counter", "shape": [], "dtype": "int32"}, {"name": "StatefulPartitionedCall/sequential_2/bidirectional_2/backward_lstm_2/PartitionedCall/TensorArrayV2Stack/TensorListStack/element_shape", "shape": [2], "dtype": "int32"}, {"name": "StatefulPartitionedCall/sequential_2/bidirectional_2/backward_lstm_2/PartitionedCall/strided_slice_2/stack", "shape": [1], "dtype": "int32"}, {"name": "StatefulPartitionedCall/sequential_2/bidirectional_2/backward_lstm_2/PartitionedCall/strided_slice_2/stack_1", "shape": [1], "dtype": "int32"}, {"name": "StatefulPartitionedCall/sequential_2/bidirectional_2/backward_lstm_2/PartitionedCall/strided_slice_2/stack_2", "shape": [1], "dtype": "int32"}, {"name": "StatefulPartitionedCall/sequential_2/bidirectional_2/concat/axis", "shape": [], "dtype": "int32"}, {"name": "StatefulPartitionedCall/sequential_2/dense_2/MatMul/ReadVariableOp", "shape": [300, 1691], "dtype": "float32"}, {"name": "StatefulPartitionedCall/sequential_2/dense_2/BiasAdd/ReadVariableOp", "shape": [1691], "dtype": "float32"}, {"name": "unknown", "shape": [1691, 100], "dtype": "float32"}, {"name": "StatefulPartitionedCall/sequential_2/embedding_2/embedding_lookup/axis", "shape": [], "dtype": "int32"}, {"name": "StatefulPartitionedCall/sequential_2/bidirectional_2/forward_lstm_2/PartitionedCall/while/body/_35/while/TensorArrayV2Write/TensorListSetItem/index", "shape": [], "dtype": "int32"}, {"name": "StatefulPartitionedCall/sequential_2/bidirectional_2/forward_lstm_2/PartitionedCall/while/body/_35/while/split/split_dim", "shape": [], "dtype": "int32"}, {"name": "StatefulPartitionedCall/sequential_2/bidirectional_2/forward_lstm_2/PartitionedCall/while/body/_35/while/TensorArrayV2Read/TensorListGetItem/element_shape", "shape": [2], "dtype": "int32"}, {"name": "StatefulPartitionedCall/sequential_2/bidirectional_2/forward_lstm_2/PartitionedCall/while/body/_35/while/add_2/y", "shape": [], "dtype": "int32"}, {"name": "StatefulPartitionedCall/sequential_2/bidirectional_2/forward_lstm_2/PartitionedCall/while/body/_35/while/add_3/y", "shape": [], "dtype": "int32"}, {"name": "StatefulPartitionedCall/sequential_2/bidirectional_2/backward_lstm_2/PartitionedCall/while/body/_95/while/TensorArrayV2Write/TensorListSetItem/index", "shape": [], "dtype": "int32"}, {"name": "StatefulPartitionedCall/sequential_2/bidirectional_2/backward_lstm_2/PartitionedCall/while/body/_95/while/split/split_dim", "shape": [], "dtype": "int32"}, {"name": "StatefulPartitionedCall/sequential_2/bidirectional_2/backward_lstm_2/PartitionedCall/while/body/_95/while/TensorArrayV2Read/TensorListGetItem/element_shape", "shape": [2], "dtype": "int32"}, {"name": "StatefulPartitionedCall/sequential_2/bidirectional_2/backward_lstm_2/PartitionedCall/while/body/_95/while/add_2/y", "shape": [], "dtype": "int32"}, {"name": "StatefulPartitionedCall/sequential_2/bidirectional_2/backward_lstm_2/PartitionedCall/while/body/_95/while/add_3/y", "shape": [], "dtype": "int32"}]}]}